weights_new15/weights4.npz (npz, 29788 bytes, 2 tensors)

means f8 [60]
00000000: 559a 5f38 52a5 cdbf 6a9e 217e 3b25 cebf
00000010: 8ecf 0f80 8f45 cebf f87d 5577 eeb7 cebf
00000020: 11b6 addb f282 cfbf fbe5 f7f6 263b d0bf
00000030: 67c6 709e 62d2 d0bf 1ec0 3061 81a7 d1bf
00000040: 71af 6473 f78c d1bf 106c 9481 54d5 d1bf
00000050: d278 3d7a 26a8 d0bf 44e6 251f 7757 d0bf
00000060: d33a ca2f 9ded cbbf 6392 10ea fa30 ccbf
00000070: f0b5 5f51 b22a c5bf 19db ff0b 973a e93f
00000080: 733a 06df a951 ea3f d497 1e14 25ad eb3f
00000090: 0797 52fd 44bd ec3f 6768 c6a2 db63 ef3f
000000a0: 7324 44fe 5d4c f03f 2705 523e eabb f13f
000000b0: f7a9 c1fd 9ab0 f23f b05f 886d d503 f33f
000000c0: 873c a0c8 831b f23f 9306 7a24 7a0d f23f
000000d0: 3d2c 3f20 be6a f13f 011a 45c2 d514 f13f
000000e0: da4b 982d f3d4 f03f 7c05 b13c 4f63 f03f
000000f0: 09e2 09ad 46c9 d8bf a5d2 8627 6958 d8bf
00000100: 5710 80e3 2914 d8bf 1291 19cd 0b5a d8bf
00000110: 8b9d 3b11 333e d7bf 8786 6583 8f2f d7bf
00000120: 3199 62f3 59b4 d5bf 6886 51ea 9ce6 d3bf
00000130: b250 e07b 970f d4bf 3c5d f736 48b2 d5bf
00000140: 4588 0990 58ef d2bf 0e87 5bad 7316 d1bf
00000150: 6c8f 6514 67ff ccbf df84 5819 b848 cabf
00000160: cee9 b060 ce3b c4bf be9f d22c b7f1 f83f
00000170: 9aa5 5016 9bcf f83f 8296 f8e1 848b f83f
00000180: 1ace 91e2 fcf8 f73f 0ba0 ed5b 0131 f73f
00000190: 4061 18c8 7f36 f63f 7b3c 16ee 1c77 f53f
000001a0: 93e8 6b4e 70d4 f43f ba42 9e5c c4d0 f43f
000001b0: ec50 fbe6 dc98 f43f 0026 d571 194c f43f
000001c0: b3ee 6fd9 9c09 f43f af49 8a2c 92e9 f33f
000001d0: 7362 7e5f 10cf f33f e712 bfec 01af f33f
-0.23160770180330084 -0.23551124247318295 -0.23649781945243514 -0.23998814417699044 -0.24618373610012204 -0.2536103641319582 -0.26284089539249184 -0.27584871760609697
-0.2742289187324252 -0.2786456361224632 -0.26026308000099363 -0.2553384594135404 -0.2181889041280188 -0.2202447550672729 -0.16536549542745105 0.7884021028865816
0.8224686962074216 0.8648858445128504 0.8981041858394015 0.9809396914672676 1.0186443264267637 1.1083776888265875 1.168116561161353 1.1884359625455367
1.131717475600256 1.1282903122777597 1.088560224498692 1.0675866688412727 1.051989725213153 1.0242454882394147 -0.3872849168615465 -0.3803961645128687
-0.3762306901628611 -0.38049597768100896 -0.3631713550843975 -0.3622778685731664 -0.3391327740486246 -0.3109504974619086 -0.313451643917925 -0.33900647514152005
-0.29585851732384 -0.2669953530258774 -0.22654427047666148 -0.2053442119368247 -0.15807513924830946 1.559012580002658 1.5506850120239961 1.5340622736925131
1.498288044965085 1.4494641867586349 1.3883054558010173 1.3415803241985305 1.301864916166356 1.3009685151957187 1.2873200438235086 1.2685789534174319
1.2523468488351852 1.2445241680003212 1.2380527239057784 1.2302264449983171

covars f8 [60, 60]
00000000: 97e3 7659 f7f7 783f af5b 6adc 4889 773f
00000010: 657e 08ef 94f8 763f 8238 5d3a 1013 763f
00000020: c29a 5cc7 b21d 743f 46e9 3b24 0493 723f
00000030: fe00 7d0b 7405 6f3f 852a 21e6 2f68 693f
00000040: caf9 702c a888 663f 9822 24c5 9036 693f
00000050: e358 8cc4 499b 673f 03dd 469b cb47 673f
00000060: 099f 2a1b 4965 643f 0c54 47c8 ceea 623f
00000070: 36e1 101f dd81 5c3f ffeb cd72 1361 30bf
00000080: 63de d209 9308 103f 0e0e 5888 19d1 3d3f
00000090: 96a8 b005 3d0d 403f 94e2 57b0 9fd6 443f
000000a0: a95b c14d e887 403f 51ab 99b8 7960 363f
000000b0: cfa7 622b c831 22bf 26b5 09f8 9b2a 3a3f
000000c0: 7170 e24e bf2a 1c3f 5e4e 97a4 b6d8 323f
000000d0: 1584 7669 9514 3a3f 80af b64c 8dd5 193f
000000e0: b396 2c3c 2cb1 343f 7bfc c034 240d 44bf
000000f0: 5f37 326f 7c44 79bf b587 de5d 8292 7bbf
00000100: cb08 ddf9 7adc 7bbf 7b34 fa0c 856a 7fbf
00000110: 53db c8ec 5760 7bbf 3b7e 57eb e022 7cbf
00000120: fd46 490d 5a77 77bf 4005 5019 9fc5 78bf
00000130: d637 629c 6555 72bf 19fc 2738 1d62 77bf
00000140: 41ce 7ace ef4d 73bf 3b68 a9e7 e991 77bf
00000150: 2825 318c 116b 72bf a136 1e3d a09e 76bf
00000160: 6df8 aaa1 262e 70bf 9ab8 9631 b4bd 4bbf
00000170: c3bd 1a8a e9dc 48bf 6b87 8216 ceb7 4bbf
00000180: e1d8 4e97 d74e 383f 823e b431 f790 3c3f
00000190: c16c 8767 da7d 533f e94c 7cf1 6e5b 503f
000001a0: 3964 df19 2ca1 5a3f 0e14 f365 e666 463f
000001b0: 054d d8ed eff6 563f 3f6c d094 d2dc 2d3f
000001c0: 8d7f 7349 fbc6 4f3f 648b 8b07 b34c 393f
000001d0: 630b 9f1c 40bc 4f3f ee54 1e21 7353 523f
000001e0: af5b 6adc 4889 773f db26 ed5c 04ba 763f
000001f0: 3973 6c27 c3f0 753f 1602 4bec cc89 753f
00000200: 3b45 8bda 3661 733f daf5 46c8 885a 723f
00000210: 44ac a61d 5f4f 6e3f fe98 d01b 5948 6a3f
00000220: a628 d46f 4304 673f d984 fe58 012f 6a3f
00000230: 9ab0 002f dd04 683f df3c 110d 3f88 683f
00000240: 805a 0f44 598b 643f 28ba 4bca 3c63 643f
00000250: 35fb 0bb4 918b 5c3f 0f99 e802 a956 25bf
00000260: a3bb 983c 44ef c13e 1c2b 7d99 7920 3d3f
00000270: 51f5 e3e1 21c2 3d3f 97fd 2ce5 4d10 463f
00000280: 083f 8317 0706 443f d16a 5c20 b9f2 393f
00000290: 1355 6fb1 b35e 2c3f a32b 472f e49a eb3e
000002a0: d47e b983 ecaf 353f 224b 338f 5832 d1be
000002b0: 9d3d e86c 1d4b 3a3f e1af e696 dd09 11bf
000002c0: 60a4 7bec c60f 303f af45 717e e938 46bf
000002d0: 3dda 5cab d3c5 77bf 09d9 3223 eb3a 7abf
000002e0: be86 9107 bc37 7abf 2722 fce8 f156 7ebf
000002f0: 8560 9e0a 1682 7abf 2a26 1fc8 5fc5 7bbf
00000300: 30d4 c5c4 419f 77bf 667a 715d 65f3 77bf
00000310: 43cd 9c6f de46 74bf 3880 102b fcde 76bf
00000320: 9d37 94fd 19d7 73bf 07d3 e645 3ee2 76bf
00000330: 7fac 796e 451c 72bf aeb4 8e66 9bd3 75bf
00000340: 52f2 cceb 4f5e 6fbf 14d8 057a 4666 47bf
00000350: be65 626e 2aac 46bf e9c6 010d ecc6 4abf
00000360: 2c09 8edf 266d 2c3f 5c73 abba 0b0f 3a3f
00000370: 002d 350f 1c87 503f eb72 0d8f 218a 4c3f
00000380: b0a7 8be5 e386 593f 6457 3714 ae89 483f
00000390: e89e 779a ea3d 563f 82ca c7c8 a1a7 343f
000003a0: a7db 3a1e 210a 503f 3cc7 14c4 7b83 3f3f
000003b0: 5e37 394e 869b 4d3f 1d5b bda3 3632 533f
000003c0: 657e 08ef 94f8 763f 3973 6c27 c3f0 753f
000003d0: db2a d11c e986 753f ecf9 03c6 89bf 743f
000003e0: 860c 4932 d92a 733f 3d86 d79d 3dc4 713f
000003f0: c2d1 7a41 6b10 6e3f fac7 c1ec 1b99 693f
00000400: 1b18 efff 3d18 663f f76a c905 8c84 693f
00000410: b87f 68f5 b3c3 663f 1e84 71b4 7857 673f
00000420: 1dcd 0093 02ad 633f 33ad 2ccc 31fc 623f
00000430: 0d0d 44f7 85d7 5b3f 7a7d d6a1 f3e3 29bf
00000440: 6c19 d4fa 2216 12bf 7fa5 8ca0 422f 333f
00000450: 6210 eb22 171d 343f 1c29 2516 e751 3d3f
00000460: b330 966e 855f 343f adc5 7b6b 1fb6 353f
00000470: bfc5 af7d 5f7c 40bf 5225 98d4 cc72 4b3f
00000480: 740b 227a fede 25bf 909f 3118 bbcd 403f
00000490: 1ebd 93fb a12e 323f 5c00 1ca4 0b30 233f
000004a0: 8b0f 2e8c c52a 343f 0955 bfa6 fd88 43bf
000004b0: 74d8 949e ef53 77bf 1f30 0d9b 06a0 79bf
000004c0: b271 0a7d 06d6 79bf c43d f755 b077 7dbf
000004d0: 4991 eb01 e9d0 79bf 7359 c1f0 c589 7bbf
000004e0: f63f afd8 341d 76bf 59b0 1d25 73f9 79bf
000004f0: 165f 9be5 b14d 70bf 0a2a 6234 e591 78bf
00000500: 7e6f 070b d06a 72bf 69f3 6ca8 9bb9 77bf
00000510: 18ce 2701 0299 71bf a83e feb4 7821 76bf
00000520: 5f05 aef6 f8bc 6ebf 6626 e17a 5ace 48bf
00000530: 8325 1fa0 35d6 46bf ee52 fe31 e9d2 49bf
00000540: 371d 0631 d5aa 313f de9f 08f3 3352 403f
00000550: 8a0a 4a0a c9f0 523f 2215 8a98 0147 513f
00000560: 2cc4 628d 9533 593f 4e53 ef8d 7d14 483f
00000570: 71c3 b5e9 eab9 553f c32d 8dbc 2846 393f
00000580: 7528 733b 05c0 4c3f 014c 69fe b47a 3f3f
00000590: e401 b8d0 2469 4b3f 215b 251d efae 513f
000005a0: 8238 5d3a 1013 763f 1602 4bec cc89 753f
000005b0: ecf9 03c6 89bf 743f 5d3b 9da3 f3a7 743f
000005c0: 05ff 384d f08f 723f 8b80 7771 f3f5 713f
000005d0: ce59 2cf4 5ab7 6d3f ae31 7a13 d4e1 6a3f
000005e0: 6d9d 346b 3965 673f 2ac4 4feb 5ed5 6a3f
000005f0: b9b3 b47b d057 683f 8ded 1464 ee87 693f
00000600: 28e8 2331 8c0a 653f 892c ef5b f4d7 653f
00000610: 1993 45d9 0d0b 5e3f 1b5b 9d80 e1e1 15bf
00000620: 7b7c d0c5 b5c7 f63e 8eb9 302f dc69 3d3f
00000630: a97c 1ce5 cbca 3f3f c2c3 2040 5ca7 463f
00000640: 1e04 f810 c9d0 463f 6027 3a7f 7000 3b3f
00000650: d3d0 f327 29d8 373f 8ae8 d883 163f 18bf
00000660: c30c edd5 fab4 3a3f 1f98 1994 bb4f 15bf
00000670: 6ef8 7210 bb4e 3b3f e055 329e c0c8 12bf
00000680: 5199 ac3e 9c1f 323f 42bf f7c2 5a77 43bf
00000690: 9a38 048d 948c 76bf 6d58 1347 1ece 78bf
000006a0: 9534 f9b0 b6f3 78bf 6b22 224b 39e8 7cbf
000006b0: 8347 1504 2fbd 79bf 0af8 2d73 71b7 7abf
000006c0: 519a decb e698 77bf 9b0a 1fb0 cd95 77bf
000006d0: ea56 aa0b 7008 75bf 11bf 2452 30a1 76bf
000006e0: 2dc3 953d 61fc 73bf 9f70 3af8 8696 76bf
000006f0: da0a 2c55 fe13 72bf 016f e1fd 22a4 75bf
00000700: c11d 93bf f1b5 6fbf 1f31 abf2 5b1e 49bf
00000710: 63ca e01e 93ec 4abf f0f3 9cbd dc30 4dbf
00000720: 7457 cbd0 4760 03bf aac9 1a55 7ab0 333f
00000730: 2491 edf4 8e4a 483f 5a27 8ab3 76e6 4b3f
00000740: abcc f704 094c 573f 6dc0 1650 ab05 4b3f
00000750: 82bd 7c40 93c9 543f 9c0f b09c fb10 343f
00000760: b5f7 9896 6fc9 4b3f cde9 519f 2048 383f
00000770: 934e 36ca 64a0 473f c229 3e02 24bc 503f
00000780: c29a 5cc7 b21d 743f 3b45 8bda 3661 733f
00000790: 860c 4932 d92a 733f 05ff 384d f08f 723f
000007a0: 4242 87f9 b4b6 713f d0b4 e95e 957b 703f
000007b0: ba12 1082 2f31 6d3f 0ac6 a798 1f19 6a3f
000007c0: 3114 808e 10c9 653f 5e66 6d4e 9a13 6a3f
000007d0: 9b9f d3b0 75dc 653f 43a9 9d86 d563 673f
000007e0: dca2 63ca c266 633f 3b85 5d91 b317 633f
000007f0: c442 17c9 16c6 5c3f bf22 2069 46f2 f7be
0.006095854004734578 0.005746159184716256 0.0056081598018234745 0.005389274015966563 0.004911135057943996 0.00453473680294742 0.003786780023716684 0.003101438095688027
0.0027507099762537944 0.0030777766743351302 0.0028816643501939783 0.002841851872485203 0.0024897029737366333 0.002309230682139068 0.00173994630701031 -0.0002499268037394197
6.116292429935717e-05 0.0004549681983407613 0.0004898593864528674 0.0006359367113751451 0.0005044826789440865 0.00034144374567428743 -0.00013881271815324592 0.00039926822504450716
0.00010744850780714119 0.0002875753312683078 0.00039795539620440915 9.854960369776004e-05 0.0003157361026516578 -0.000611918143029202 -0.00616882903262969 -0.006731518978911601
-0.006802063346017027 -0.007669944504994248 -0.006683677155300344 -0.006869200316458153 -0.005729057088119435 -0.006047841529836007 -0.004475972096896505 -0.005708803308606591
-0.004712998146419845 -0.005754388514640547 -0.0044966397718522524 -0.005522371227824203 -0.003950262932162924 -0.0008465890743332316 -0.0007587566689916603 -0.0008458858765332094
0.0003709102959946875 0.0004358867169722351 0.001189673696095281 0.0009983619147007578 0.001625340526052689 0.0006836533538253657 0.0014016478593291148 0.0002278334672219679
0.0009697653757960598 0.0003860413631128683 0.0009684861226947169 0.0011185287771458513 0.005746159184716256 0.005548493426269475 0.005356561966235068 0.005258369904084256
0.0047313826296016505 0.004480871492373828 0.0036999566775271237 0.0032083263781884632 0.0028096501470190214 0.0031962419815988294 0.002932006835200407 0.0029946547952374026
0.002507852885610007 0.002488726359266797 0.001742260254274886 -0.0001627999603936521 2.1379750918741046e-06 0.00044444054355057146 0.0004540760727563447 0.0006733303401701859
0.0006110701206356326 0.000395937153699383 0.00021644538421009742 1.3163110886523827e-05 0.00033092045098291373 -4.100004150591945e-06 0.0004012057151223327 -6.499686217037406e-05
0.0002450810102190889 -0.0006781711680422987 -0.005803896745240564 -0.0064038453157790965 -0.006400808802114076 -0.007407135926549325 -0.006471716022041223 -0.006780027530064051
-0.005767113598598647 -0.005847354847985464 -0.004950398340770437 -0.00558374884806772 -0.004843808675344533 -0.005586856130709312 -0.0044214927835169995 -0.005328757318165218
-0.003829151245012854 -0.000714096462657523 -0.0006919104751147915 -0.0008171703903043479 0.00021687602545845377 0.00039762531620884055 0.0010087751405361556 0.0008709586964915338
0.0015580392411558112 0.0007488346095054607 0.0013575354622563044 0.00031516742526985924 0.0009789775294117649 0.00048085948590702635 0.0009035497464055899 0.0011716397848055623
0.0056081598018234745 0.005356561966235068 0.005255613895381396 0.005065477540709722 0.0046795353160319405 0.004337540330625664 0.003669938548990199 0.003124765911757696
0.0026971064503156345 0.003114961129808132 0.0027788653199109746 0.0028493268505802713 0.0024018335607479805 0.0023175213440446373 0.0016993339787070877 -0.0001975283529817953
-6.899441241978659e-05 0.00029273392333325343 0.0003069097028112253 0.00044738666305889504 0.00031086928955726816 0.00033128993116723454 -0.0005031076683492049 0.0008376598499932142
-0.0001668630257577148 0.0005128062770269771 0.0002774377313263398 0.0001463903627652055 0.000307725171460265 -0.0005961645633713329 -0.0056952819953065455 -0.006256128123663301
-0.0063076261000358114 -0.007194222270711707 -0.00630274790339442 -0.00672318764198675 -0.005398947173446791 -0.006341409478277959 -0.0039803456399665395 -0.0059985116296368355
-0.00449639574841487 -0.005792243994446313 -0.004296310262805324 -0.005403014671074104 -0.0037522184915707436 -0.0007570211216798128 -0.0006969224780217085 -0.0007880819939481678
0.0002695818411883768 0.0004980806025445224 0.001156040504753849 0.0010545268616238353 0.0015381775352063627 0.0007348645266299443 0.001326064498098325 0.00038565153640909513
0.0008773828075388084 0.0004803363685016993 0.0008365087282414222 0.0010793051811412507 0.005389274015966563 0.005258369904084256 0.005065477540709722 0.00504298373728215
0.004531801870655054 0.004384947729221387 0.003627469677108786 0.003281511508083499 0.002855884691274893 0.0032755712404584263 0.0029715606630333594 0.003116574866593508
0.002568506061945381 0.00266645170583996 0.0018336901894937029 -8.347452981403681e-05 2.1724812871434518e-05 0.0004488146361748762 0.00048511007217828334 0.0006913376275915417
0.0006962758797614021 0.0004120134974320202 0.000363836334101875 -9.24928180773573e-05 0.0004075157539100255 -8.129675281906599e-05 0.000416680021270716 -7.16559948606625e-05
0.00027654232569531307 -0.000594062153991694 -0.005505161549321036 -0.006055944702174282 -0.006091798437023806 -0.007057403376287223 -0.0062839352188620605 -0.006522601283789351
-0.005761052654554692 -0.005758098095557297 -0.005134999921798425 -0.0055248153242215695 -0.004879360052073162 -0.005514647698557833 -0.0044135985251638424 -0.0052834860672097425
-0.0038709375045049292 -0.0007665585484004956 -0.0008216589319601338 -0.0008908346019108598 -3.695696986986868e-05 0.0003004358924087134 0.0007413099318509847 0.0008514480205843264
0.001421936805738248 0.0008246504295836961 0.001268762398421192 0.0003061880385646311 0.0008479876389129089 0.0003705100674050971 0.0007210247171535892 0.0010214187286431285
0.004911135057943996 0.0047313826296016505 0.0046795353160319405 0.004531801870655054 0.004324633533955126 0.004024108390337136 0.0035634925739052832 0.003185807906668674
0.0026593516704474175 0.0031831754489928662 0.002668599953370388 0.002855221789038216 0.002368336153370938 0.002330637663292249 0.001756212474323047 -2.2837054139332064e-05
