weights_new15/weights5.npz (npz, 29788 bytes, 2 tensors)

means f8 [60]
00000000: 6108 9d81 fc98 cbbf 9b11 a991 295c ccbf
00000010: 6fb9 568f 50ab ccbf 95aa 54d5 3b21 cdbf
00000020: a5e4 7b5e 3ca0 cebf ec7f ab73 0926 cfbf
00000030: af38 d4bb 9285 d0bf 71ff 2f50 7df4 d0bf
00000040: 6ae2 3731 2254 d1bf 49c2 2d26 61be d0bf
00000050: 46c7 add9 e287 d0bf 464c 180e 28ad cfbf
00000060: 208c 36a7 499c cfbf f602 2ea4 760f cfbf
00000070: 097c deda a5f7 cebf 395a ddd2 4314 e63f
00000080: 8e16 80b6 ef1c e83f b083 8810 dc77 e93f
00000090: 82f3 0a40 0e3c eb3f a919 b381 fea4 ed3f
000000a0: f94e 9485 4a69 ef3f 94fd 2f0b 67e5 f03f
000000b0: f794 fc26 704a f23f 788a 6818 2219 f23f
000000c0: 4742 c366 5fa7 f13f b264 1bc1 447e f03f
000000d0: 4e5b d337 4724 f03f ceff 7032 d0f2 eb3f
000000e0: cc00 3d60 6790 ec3f 6031 29ba 1940 e73f
000000f0: e04b 17b1 ac66 d5bf f29c 4e2e 539a d5bf
00000100: c02f 3df9 c4af d5bf 0acf c116 173a d6bf
00000110: 8751 6e36 8c73 d5bf a1a8 f627 0a08 d5bf
00000120: ae30 1a56 fbab d4bf 4987 1a00 4f63 d3bf
00000130: d9a3 b69a 57bd d3bf 69cc 738c 445a d5bf
00000140: e59b 5597 5496 d5bf a095 1c3c da6a d5bf
00000150: 41e4 3582 1405 d6bf 1b59 eaf4 8a6d d5bf
00000160: 0e98 3784 4d9b d5bf 31a7 bd86 c6a5 f83f
00000170: 0c3e 0c05 ce76 f83f a5ce eee8 b46e f83f
00000180: 5ce0 7b20 620e f83f 0755 9776 b8a1 f73f
00000190: 5123 c44f 75dd f63f f008 3ba3 8972 f63f
000001a0: 14f1 e303 79ee f53f 2185 3ebc c2dc f53f
000001b0: 3727 5030 c9c5 f53f f054 2436 63f9 f53f
000001c0: 2efe 7c62 4870 f63f e9bf 0b76 4ff2 f63f
000001d0: 56d1 7f7e 2c73 f73f 9f6c 084c c98f f73f
-0.21560627297191373 -0.22156257259679255 -0.22397810934985382 -0.22757671276606986 -0.23926500905489437 -0.24334829471536013 -0.2581526598231773 -0.2649224551278087
-0.270760105194802 -0.2616198418464007 -0.2582938314218278 -0.24747181595066275 -0.24695702233029326 -0.24265940682018766 -0.24193261324850848 0.6899737471056319
0.7535322727641913 0.7958813021579001 0.8510810137591849 0.9263908894725336 0.9816029175730981 1.0560064732561374 1.1431733630100192 1.1311360314799952
1.10336246625606 1.0308272879831688 1.0088569813430754 0.8733902917083414 0.8926274184850853 0.7265747676806704 -0.33439175886195294 -0.33754424593139654
-0.33885311450717026 -0.3472955438839881 -0.3351774722625795 -0.3286157026547106 -0.32299693497112514 -0.302936315633009 -0.3084315310357489 -0.33363450733231176
-0.3373004415392969 -0.3346467577960883 -0.3440600654208233 -0.3348109618904275 -0.33760393058617033 1.5404725325883641 1.5290050694637811 1.5270279978694046
1.5035115498449363 1.4769825584856464 1.429066955172136 1.4029632927127373 1.3707208778351445 1.3663966515817452 1.3607875716429143 1.3733856310766974
1.4024127814481164 1.4341578112762312 1.465618604791492 1.47260408115725

covars f8 [60, 60]
00000000: 5f2d 58cb 33d0 633f 5f88 7d68 fae9 5f3f
00000010: 5a9b f797 3975 5f3f 040a 4226 b449 5a3f
00000020: 9541 e60e fe94 553f 85dc 5131 98c7 4d3f
00000030: f08c 60e4 8213 423f 6809 ebf8 113b 253f
00000040: 7a42 6f76 9b89 023f 0e75 e9d1 3360 253f
00000050: 2472 56d4 84b2 063f b685 b2de b6a6 c53e
00000060: 4aed d4fa e50b 1ebf 30d9 2f5d d185 2dbf
00000070: 51aa 2d91 b837 33bf b7c7 1ab3 89d6 5a3f
00000080: 6aea 45f2 2aa5 523f 138f ccda 447b 4c3f
00000090: 2ad7 0854 804b 433f 05bf 475b c884 393f
000000a0: f535 7c24 9949 2c3f a17b 74b2 82d8 393f
000000b0: d865 ce75 30ba 0c3f 3ce4 bbab 7fe6 3c3f
000000c0: 3599 6a95 2033 253f 2508 8236 4778 f93e
000000d0: 0c0b 34bf 1cd4 1e3f 4803 25e4 8af8 35bf
000000e0: a5fc f54a 4c40 f03e f5cf adbb 7ac0 48bf
000000f0: fbff 25e8 f5b5 68bf 41e8 a15e 3897 64bf
00000100: 5eb1 2b7a 155a 65bf 70d6 5f43 34fd 60bf
00000110: 3789 83e9 d940 5ebf a5f3 eb1e 8fde 51bf
00000120: 562f 8d1a 593d 4fbf af56 79ce f1a3 44bf
00000130: 0f2f 67c0 e22f 40bf ac82 d10a c9de 33bf
00000140: d1f5 b9cb 8397 45bf 51fa 816a b951 45bf
00000150: dfc1 e8dd f809 51bf cee7 869f 34b0 4cbf
00000160: e4ac 9eaf 762b 55bf ae7d 1886 d001 403f
00000170: 325b a242 4349 4b3f 4144 759a 8a2b 533f
00000180: 4dbd 1f79 4efa 513f 5afa 3d6a 8cca 513f
00000190: 8bd7 4751 cfd5 e23e a52b 2e3f ed2a 3dbf
000001a0: 893d 2367 f351 45bf 96bc 5c01 a033 40bf
000001b0: 3823 50fa 02e8 40bf fba7 8a9a 1e64 37bf
000001c0: d886 69e5 6a97 46bf b7fb 80a2 a18f 4dbf
000001d0: 2d09 56f3 1fd7 52bf e579 134a 8102 54bf
000001e0: 5f88 7d68 fae9 5f3f 6754 fe65 3e20 5e3f
000001f0: d362 87e1 2eff 5c3f f287 573b 819f 5b3f
00000200: 6142 0b3a 1325 573f 8473 d0f5 bf9c 523f
00000210: 9ce0 fc3b 4b53 4a3f 28ba c0b3 1790 413f
00000220: 9cd5 8a29 57c8 383f 888a 02fe d9b1 413f
00000230: 8192 60bc 1c4b 3c3f 8a46 8b72 4dd3 3a3f
00000240: a4e1 e5c2 3fe7 353f 23a6 212e 0784 2e3f
00000250: 8dd1 9044 7834 263f b629 8c35 d517 523f
00000260: da9a 2ef5 42c2 453f 7404 7c5f 5500 413f
00000270: 5c7a 0f1d 5aff 303f c459 89ee b015 323f
00000280: 4dcf c93f 33c6 243f 2779 c834 7805 403f
00000290: 3ecc 4727 1255 2e3f aa92 6f89 9090 3a3f
000002a0: 6b63 9b1a bc38 333f 4f47 efe9 f909 f6be
000002b0: 44f7 963a 9c27 293f 19d2 561e a6cf 32bf
000002c0: 4da0 e897 693d 1b3f 0f54 5b90 3afd 43bf
000002d0: f477 dd19 4945 64bf 6f77 5d4d a22b 64bf
000002e0: f995 7c8e 92d7 63bf c5db fc64 cd39 62bf
000002f0: f1c6 aefc 2fe7 5fbf 4ef0 82e0 0d35 58bf
00000300: c04d 8676 2e29 57bf 3dd9 007c 6366 52bf
00000310: acbe 6bde fccb 52bf 76de 0bc0 3159 4dbf
00000320: 5fdf 19f5 1f21 54bf 8c25 07fa 1b8b 52bf
00000330: f897 98c6 df23 58bf 8650 f4c3 30fd 53bf
00000340: 693c 325d 2276 5abf 6f5b a5c9 bfd9 523f
00000350: 8492 fb84 09d7 583f 83dc 0021 be22 5b3f
00000360: 1128 904e b75d 5c3f 2ac8 e05a 0eda 543f
00000370: 555c 35d0 6e8b 383f 91e5 69ca aafe 40bf
00000380: 3f56 436f 7607 46bf afb8 b905 fa78 40bf
00000390: c50c 3be5 f64b 42bf a8ea 3e2b 5422 37bf
000003a0: 1a3f d4ba 3136 45bf 75a0 1534 eafa 4abf
000003b0: 2725 ad4f e1df 50bf 2d0c 3467 cd82 51bf
000003c0: 5a9b f797 3975 5f3f d362 87e1 2eff 5c3f
000003d0: 4490 9a00 49ff 5c3f 95ac cafb 916f 5a3f
000003e0: 329d 0bf3 b442 573f c537 acd6 88ad 513f
000003f0: a4cb 1d07 bdfe 4a3f 410e 16d5 965d 403f
00000400: 36c8 06b4 21dc 373f 6fd4 b791 feba 403f
00000410: 7ba3 3fe4 eec3 383f ea31 d49c 2074 3a3f
00000420: fcf9 aa8d 7cf8 323f 6495 81ed 7bd5 2b3f
00000430: 3c5a dec6 72db 233f df44 c907 b3f5 513f
00000440: 4586 a044 8202 423f 5772 3291 9acd 3b3f
00000450: 1f35 67fa b92f 303f 2e05 2e1c cff0 213f
00000460: d67e 24aa a2c3 123f 60ce 7bd6 eb2f 3b3f
00000470: 1640 19cf d1f0 15bf a9cd 4425 38c5 483f
00000480: 3576 d59c fb05 043f d1b0 d452 711a 2e3f
00000490: 5ffd 7203 29de 243f 2603 7381 f759 24bf
000004a0: 8ffe 3dc9 42ab 253f d5a3 cc41 55f8 42bf
000004b0: e083 4c9f c7bf 63bf 44d1 6fb2 84d9 62bf
000004c0: c1a7 3b8f 2ec4 63bf 918e 79ca 6a13 61bf
000004d0: 57cd 8fb8 17ea 5fbf 4737 58dd 09db 56bf
000004e0: 2967 fc43 3fac 55bf 7f13 2127 292c 54bf
000004f0: 848e 1500 dd51 4dbf 918a 77bb e418 4ebf
00000500: b675 40f6 d91a 53bf ed06 03b4 6313 52bf
00000510: 60f1 93d6 804d 57bf dfc1 cd39 b7a5 53bf
00000520: 0c8d b16e 007a 5abf ccc1 dbd5 171b 523f
00000530: 3793 0391 9bcf 553f 1a81 d250 7992 5d3f
00000540: 83af ed38 af47 573f 6e44 511e 138a 583f
00000550: ce37 404d 56d8 1c3f 3fbc 9d22 2e3c 2ebf
00000560: 695c af81 ecea 45bf d67e 583e e92f 40bf
00000570: e1ae 58b1 4d14 40bf 0e34 a750 2e8f 38bf
00000580: 920b a31c d80a 46bf 1c07 7fa3 bb81 4cbf
00000590: 3021 e2c4 a74e 50bf fc3b f812 d768 50bf
000005a0: 040a 4226 b449 5a3f f287 573b 819f 5b3f
000005b0: 95ac cafb 916f 5a3f 680e 8fda 52d7 5b3f
000005c0: b16e 427a 8c5a 573f 72fe 5e98 9fee 543f
000005d0: 8728 480e 5034 4e3f b327 a34f 0986 4a3f
000005e0: 7dd3 496f 1b8d 423f 9f2a 0870 00e6 493f
000005f0: a7b6 29a8 2204 463f d3e9 b46a 5cdb 463f
00000600: d3a7 fb2b cb1e 453f f1d9 6d20 769e 423f
00000610: 9576 8594 29b7 403f 9aad f5dd 6569 493f
00000620: d132 139d bcfb 353f 7f96 d2dc c74f 333f
00000630: 95e0 1beb e9e6 efbe 3f4b 774e 2a8e 283f
00000640: d6f2 2c6b 93dc fe3e 2df0 9119 459e 413f
00000650: f1f2 e3d5 8cce 2a3f 1051 ba0a ea9c 403f
00000660: 4d0f 354c 28f4 323f c140 df7e 9307 093f
00000670: fff4 14fc 7a1c 2e3f 5893 bd33 8ded 2bbf
00000680: ccb0 93fc cdfb 253f 1650 01a6 7bd9 40bf
00000690: bfb1 7ca4 6d82 61bf 5111 3061 384a 63bf
000006a0: b401 8d22 2482 62bf bf60 d984 ecc9 62bf
000006b0: cfff 515c 353e 60bf 327d 0d43 8bcd 5cbf
000006c0: 6e5d 6350 1fca 59bf 38e9 766d ca77 59bf
000006d0: f608 1b72 c11d 57bf f5f8 d696 c02d 55bf
000006e0: 58eb f6cb 2b5b 59bf 240d 874c 714e 57bf
000006f0: ffd0 fb70 b46d 5cbf 0724 0e02 4acc 57bf
00000700: f3aa f740 d3db 5dbf a732 1c8f f9ca 553f
00000710: c3b2 ec4d db7f 5d3f 1af9 4c03 0415 5d3f
00000720: b462 e2a3 89ea 603f 9287 7392 7e6a 563f
00000730: c78e 81b1 c177 453f ea78 c290 b0b1 43bf
00000740: 6488 f5fa 6e59 44bf a74c 8aad 2f78 3dbf
00000750: c759 fca1 d164 43bf ef64 8842 fc36 33bf
00000760: aac3 e0fe fe17 42bf c980 badf fdf0 44bf
00000770: e801 0aec dbee 46bf 915f 0a15 5d9a 47bf
00000780: 9541 e60e fe94 553f 6142 0b3a 1325 573f
00000790: 329d 0bf3 b442 573f b16e 427a 8c5a 573f
000007a0: 2592 3c64 1219 573f 43d7 20fa 70f7 513f
000007b0: 5f46 0404 dc3f 513f 9aac 1366 740e 4a3f
000007c0: 7f9a 6b65 1f01 423f 70d7 b06b ec0c 4a3f
000007d0: 45fa 68cc ccbb 423f f2fc 1385 af33 493f
000007e0: 5c93 ff98 da59 453f 3e68 7dec f711 453f
000007f0: 51cf a86e 0b71 433f 8a75 6d50 b144 423f
0.002418614540834404 0.0019478745834580408 0.0019200384557451406 0.001604486396019512 0.001317260841094824 0.0009088032844734173 0.0005516423341344317 0.00016197771443244723
3.535752949058043e-05 0.00016308434074378163 4.3291739113747e-05 2.581027492690799e-06 -0.00011461821732876746 -0.00022524052346257475 -0.0002932382205275463 0.0016380638811992318
0.0011380118749843245 0.0008691869930754513 0.0005888344385940093 0.0003893841888204938 0.00021581644454508856 0.0003943747601215468 5.479298008665882e-05 0.00044098488773120273
0.00016174099683503312 2.4289929030370375e-05 0.0001176016374309469 -0.00033524886034190906 1.5498317848191976e-05 -0.0007553672106568309 -0.0030164530627985165 -0.002513513657558725
-0.0026064319111950692 -0.0020738621487861805 -0.0018465164230794925 -0.001090659872431157 -0.0009533581806890716 -0.0006298952766409983 -0.0004939896760389489 -0.00030319603212628876
-0.000658931115551981 -0.0006506114341531898 -0.0010399751987614154 -0.0008754975270257538 -0.0012921008151163755 0.0004884975607559094 0.0008327082080253677 0.0011700490520818593
0.001097275384832691 0.0010858889808954748 8.981320697803104e-06 -0.0004450635162178091 -0.0006506384363777355 -0.0004944354320509821 -0.0005159391918151185 -0.00035691973838913844
-0.0006894370988670085 -0.0009021319610907828 -0.001149922563258142 -0.001221300372257533 0.0019478745834580408 0.001838742195080978 0.0017698247739785136 0.0016859781293239143
0.0014126479874684505 0.0011360048877186732 0.0008033864359964396 0.0005359760029984327 0.0003781521605035977 0.0005400003829161984 0.0004317231326942742 0.0004093231278093709
0.0003342180888448404 0.0002328165783780793 0.00016941040147034868 0.001104315006332441 0.0006640269224263654 0.0005188385830196111 0.0002593607906059886 0.00027595109580627283
0.00015849471664674611 0.0004889332718141279 0.00023141714667893222 0.00040534523708250314 0.00029329864865484137 -2.1017999298162626e-05 0.00019191534128809075 -0.0002870350420736425
0.00010391194334913416 -0.0006100212055694126 -0.002474444175205365 -0.002462212559222125 -0.002422128909432383 -0.002224827920055602 -0.0019472092269378594 -0.0014774928586538563
-0.0014136270275216661 -0.0011230441596246775 -0.0011472672865088613 -0.0008956425591283973 -0.0012286007007826433 -0.0011317990503008938 -0.0014733968076909836 -0.0012200332856240627
-0.0016150794588474465 0.0011505482603603975 0.0015161126101982678 0.0016562325217941716 0.0017313280206985341 0.0012726917443726207 0.0003745217838590544 -0.0005186399401530419
-0.000672276334195039 -0.0005027027904824978 -0.0005583720726111343 -0.00035299830346572714 -0.0006473295995039513 -0.0008233684131200419 -0.001029939680579803 -0.0010687833681124568
0.0019200384557451406 0.0017698247739785136 0.0017698491014153253 0.0016135144825664461 0.0014197127422280295 0.0010789715112795456 0.000823824213723835 0.0004994379507227768
0.0003640730174324676 0.0005105727208830744 0.0003778894645152725 0.0004036502476345837 0.00028946915487529346 0.0002123559741022226 0.00015149856647829636 0.0010961769431967955
0.0005496154856283261 0.000424242244841532 0.0002469853447138615 0.00013687637519058923 7.157974554105757e-05 0.000414843633264916 -8.369713375455697e-05 0.0007559322498650783
3.8191548450622e-05 0.00022966988891804385 0.0001592087807917681 -0.00015526911076870728 0.00016532125721012813 -0.0005789200109563806 -0.0024107836601534455 -0.002300986455788275
-0.0024128827443421212 -0.002084454132089971 -0.0019479018831106332 -0.0013949962934733538 -0.0013228051975091115 -0.001231231869057242 -0.0008947686293762779 -0.0009184948784731352
-0.0011660698446641477 -0.001103255621317019 -0.0014222868142602305 -0.0011991776766216917 -0.0016160015318512104 0.0011050923125673793 0.0013312358096808205 0.0018049416278601072
0.0014208995014212973 0.0014977633193391754 0.00011003519767901969 -0.00023067534612716993 -0.0006688742463393352 -0.0004939926990949705 -0.0004907016143013942 -0.00037474518526609067
-0.0006726794465737754 -0.0008699575619106367 -0.0009953153962972243 -0.0010015583355913451 0.001604486396019512 0.0016859781293239143 0.0016135144825664461 0.0016992863768202863
0.0014253970958070623 0.0012775953814382593 0.0009217635056881925 0.0008094354118608399 0.0005661376913638074 0.0007903577935065193 0.0006718796942785835 0.000697536588098397
0.0006445400285575116 0.0005682064810191273 0.0005101159122593175 0.0007755038640601564 0.00033543925117100493 0.0002946722932598358 -1.5212062268940815e-05 0.00018734232365477142
2.94319385816141e-05 0.0005376660730145359 0.0002045199316355255 0.0005069868834249053 0.00028921111898604497 4.7740162571253883e-05 0.00022973061826717792 -0.00021307324083888013
0.0001677216480752197 -0.0005142072441324276 -0.002137388368188747 -0.0023547269024694413 -0.0022593217621819876 -0.0022935504446587036 -0.0019827882957201624 -0.0017579898814899628
-0.0015740686226786943 -0.0015544392425526753 -0.0014109028929146206 -0.0012926464799956603 -0.001547615785837583 -0.0014225107607764376 -0.0017351400492176536 -0.0014525149092341498
-0.0018224299454867004 0.00133013125418128 0.0018005029339277924 0.0017750300587092206 0.0020649612698203316 0.001368163686315847 0.0006551452415916808 -0.0006010162483283375
-0.0006210128685035896 -0.00044966854105972027 -0.0005918525311894789 -0.000293194376838792 -0.0005521769614969991 -0.0006390800112576973 -0.0006998609388376128 -0.0007203058722380242
0.001317260841094824 0.0014126479874684505 0.0014197127422280295 0.0014253970958070623 0.0014097861866925268 0.0010965922633778414 0.0010528229323124789 0.0007951801636897516
0.0005494502355219559 0.000794997634676815 0.000571703910118356 0.0007691008596849831 0.000651580559858016 0.0006430111470578993 0.000593309957656699 0.0005575052062842128
