weights_new15/weights3.npz (npz, 29788 bytes, 2 tensors)

means f8 [60]
000000 1a af cb 71 8e d0 ab bf 5f 43 c6 da 25 0f af bf
       -0.054325534239835174 -0.060662444072596904
000010 93 93 86 84 d0 34 b0 bf ad 2b 02 fa 4c 3a b2 bf
       -0.06330588565340482 -0.071202097928263
000020 5e c3 ca 09 62 b9 b3 bf d9 0a f3 ec 78 4b b6 bf
       -0.0770474695116383 -0.0870891169061382
000030 ac 75 cc 21 c3 12 b9 bf e5 43 97 76 ef 8a bb bf
       -0.09794253897822242 -0.10758873601231718
000040 10 36 6e 2d 28 da bd bf 14 c4 c8 e6 e9 aa bd bf
       -0.11661006077903147 -0.11588918575650126
000050 3e 58 01 b0 11 d3 bb bf 3e aa 22 0d 33 9b ba bf
       -0.10868940875056496 -0.10393065519989705
000060 81 4d 88 4c ef 2a bb bf c2 c1 ac 9a 35 80 ba bf
       -0.10612388246982186 -0.10351882005921367
000070 19 7a fd 36 10 40 bb bf 87 ea bb 11 8f e4 f0 3f
       -0.1064462789777071 1.0558005039917207
000080 b1 40 41 ae e3 6d f1 3f f5 70 df 93 92 d1 f1 3f
       1.089328461344888 1.1136651779443671
000090 3c c1 f1 b1 fa ad f2 3f 46 d6 1f 7d e4 69 f3 3f
       1.16747540959848 1.2133526694937173
0000a0 9b 5f a6 f6 62 8e f4 3f ba 2b 02 52 3a 4d f5 3f
       1.2847623476754737 1.3313544467407454
0000b0 b0 b4 f3 8d c2 e1 f6 3f c6 3e bb 62 0d c6 f6 3f
       1.4301171822547012 1.423352609319339
0000c0 d2 9b 8d 91 bf f7 f6 3f 3a 39 52 b7 a1 62 f5 3f
       1.4354854283972043 1.336580005739576
0000d0 17 7f 59 be 94 65 f5 3f ae 27 e6 c7 ef 11 f3 3f
       1.3373000560313295 1.1918790634685865
0000e0 03 ad 47 0d 5c 9d f3 3f 6e 77 ad b0 a1 de f0 3f
       1.2259178656339038 1.054353418490304
0000f0 a9 a6 53 22 66 52 d2 bf df 11 e5 da 76 0c d2 bf
       -0.2862792334768565 -0.28201075912900636
000100 21 06 af ca a8 3e d2 bf 32 48 0a 2d 17 c5 d2 bf
       -0.2850744227726825 -0.29327945135549094
000110 0f 81 a9 6e 28 ce d2 bf 94 e7 6f 54 dd f6 d3 bf
       -0.2938328819927997 -0.3119424175816843
000120 c2 80 bc 11 1e 66 d3 bf 9a 0b 79 7b eb 92 d3 bf
       -0.3031077550131266 -0.30584227617162585
000130 99 d5 3e a1 22 e6 d2 bf e4 64 b7 37 29 d6 d3 bf
       -0.29529634234071406 -0.30994635048916863
000140 e8 8c 47 b1 cb d1 d1 bf e7 21 18 6b 78 40 d3 bf
       -0.2784299117322022 -0.30080995996880094
000150 30 fc ec 72 69 5f d1 bf 9a cb 47 60 2b 9c d2 bf
       -0.27144848082747597 -0.2907818260420584
000160 de de 18 63 4d 9b cf bf 6e ba 46 4b 2a c0 ee 3f
       -0.24692694987037717 0.9609576673736464
000170 c4 c7 a4 cd 61 70 ee 3f fc 9d 10 12 0a 2d ef 3f
       0.951218511245536 0.9742479660826002
000180 07 5a 27 02 d2 c6 ed 3f 5c f3 a9 71 75 7a ee 3f
       0.930520061689834 0.9524485797879652
000190 9c aa 2e c1 67 c5 eb 3f 91 bf 09 71 1d e9 ec 3f
       0.8678473256198518 0.903456421639918
0001a0 74 ff 94 7e 4e f7 ea 3f f2 57 cc 95 d9 f1 ea 3f
       0.8426887962632308 0.8420226979967522
0001b0 a9 d9 30 33 a1 65 e9 3f 92 d8 4d 89 d2 2d eb 3f
       0.7936559676953056 0.8493435556145121
0001c0 46 36 65 7d 09 f1 e9 3f 06 73 11 2a 06 31 eb 3f
       0.8106734704139817 0.8497343846935059
0001d0 4f aa 2c fc ec c9 ea 3f 52 fc ee 6c 88 6b eb 3f
       0.8371491360933961 0.856876576195541

covars f8 [60, 60]
000000 15 0f 1f af 31 77 70 3f 53 d1 35 ce 3e d3 6c 3f
       0.004019922331227628 0.0035186983747569705
000010 e7 4b 85 97 b9 73 6b 3f 7c d6 af 57 d1 50 67 3f
       0.003351080402504081 0.0028461540909983634
000020 2c ed 52 7b 8b 85 63 3f 51 69 c0 88 04 85 5c 3f
       0.002383015084516457 0.0017406982688102544
000030 cb fc dd 3d 91 5e 52 3f 8c 37 53 77 e6 ea 3c 3f
       0.001121179425780205 0.0004412472402009974
000040 c5 90 1a 00 57 e9 16 3f b6 4b dd dc d7 10 2d 3f
       8.740037449201088e-05 0.00022175440829616332
000050 df af fd f7 cf 8e 39 3f 93 b3 0c 35 94 74 3b 3f
       0.0003899820076103104 0.00041893595066504994
000060 dc 35 49 21 fd 6b 37 3f 1c 2a 32 a4 3c 3f 39 3f
       0.00035738878185473193 0.00038523893835732
000070 92 2d 90 86 04 cd 36 3f 09 9e d3 39 fc 2e 4a 3f
       0.0003479133652610429 0.000799058110399765
000080 f5 7e e3 ab 2d 7e 55 3f 98 86 95 8a c8 dc 52 3f
       0.0013118215570599421 0.001151271668583231
000090 1b c9 dc 83 84 84 55 3f 4d 2b f5 27 75 79 48 3f
       0.0013133329479840309 0.0007469007540888778
0000a0 27 bc b5 d7 89 5a 48 3f 53 5c 7a 5a 69 2c 1b bf
       0.0007432148990299579 -0.00010365860964110908
0000b0 75 92 5c 87 04 36 32 3f 0c 99 5b cc fe a0 08 3f
       0.0002778779083761126 4.697587568873633e-05
0000c0 d9 8c 08 17 7e 21 51 3f 7a 50 ec 2d 86 c1 32 3f
       0.0010455828997997711 0.00028619314063971885
0000d0 da ec fd f5 78 6c 59 3f 0c 73 a6 dc 7b 71 38 3f
       0.0015517407664152245 0.00037297510120897
0000e0 76 d1 6c 90 11 5c 5a 3f ea 69 0c bf ac 52 20 bf
       0.0016088649296764602 -0.00012453421324994048
0000f0 35 8b b4 14 ac 35 71 bf 7c 40 02 f2 80 7b 73 bf
       -0.004201576415001897 -0.004756454174767662
000100 3c 4f 40 4a 37 aa 72 bf f4 79 c7 a2 30 43 72 bf
       -0.004556861855252777 -0.004458608611882731
000110 ff 1a 5f d3 e4 0a 71 bf 3c ab bd d6 81 dd 6d bf
       -0.004160779810212344 -0.0036456619181327848
000120 60 d9 ae 4c 43 f6 6a bf 8d 4c b5 39 d9 19 65 bf
       -0.003291255421085257 -0.0025758021053348735
000130 d6 de c2 0e 48 c9 60 bf 43 5f d9 dc 5e 39 60 bf
       -0.0020491034866515307 -0.001980481413550368
000140 4b af 06 93 dd 5f 60 bf 1c a2 0f 51 4a 3e 61 bf
       -0.001998837244363038 -0.002104897641846527
000150 b5 da d7 d3 e6 0c 65 bf 3c 40 42 fa ef 24 66 bf
       -0.002569628558144766 -0.0027031600057583465
000160 bb 92 f2 e0 19 00 6c bf 8f b4 94 8f 9c 72 71 3f
       -0.0034180169528375804 0.004259692731733668
000170 e5 c0 f9 f8 c1 5d 71 3f 0e e5 f3 c4 18 a6 6f 3f
       0.0042398049405252035 0.0038633807922648982
000180 20 48 fe a9 57 b3 6f 3f 16 89 82 ca b5 5a 68 3f
       0.003869696825810301 0.002972941456463772
000190 87 6f 59 88 45 59 62 3f 48 77 44 53 17 b2 37 3f
       0.0022398336466675248 0.0003615672060436237
0001a0 13 f6 1a 60 ad fb 05 bf 4e cf 94 99 47 94 43 bf
       -4.192946290746901e-05 -0.0005975103005426503
0001b0 65 ca b7 8b 63 a8 37 bf 78 e8 a8 1e 67 01 19 bf
       -0.0003609889060662063 -9.538833516212371e-05
0001c0 87 76 09 a0 7b c4 44 bf 17 41 f6 c6 fe ed 2e bf
       -0.0006337741506958352 -0.00023597464631253874
0001d0 2e 54 82 7c cd c5 3f bf 5c 6b 04 d1 e8 c4 49 3f
       -0.000484812419480565 0.0007864128874957954
0001e0 53 d1 35 ce 3e d3 6c 3f a4 58 ac 51 ac ee 69 3f
       0.0035186983747569705 0.0031655660253689533
0001f0 73 e6 7a b8 11 33 68 3f e4 95 e9 c0 8e d7 64 3f
       0.002954039202305131 0.002544192138247624
000200 75 7c 3e bb da 50 61 3f 8c 0e 4d ba 7e a0 59 3f
       0.0021137497041788197 0.001564143903309753
000210 56 d4 ae f1 95 ef 50 3f 6a 70 bf b9 34 09 39 3f
       0.0010336841867062594 0.0003820184444955967
000220 3c 2e 8b 6c cc f4 18 3f a7 9b 47 fd d6 8c 28 3f
       9.520051674909933e-05 0.00018730282194142947
000230 63 01 fb 30 82 a1 36 3f 1a 47 90 a2 27 66 38 3f
       0.00034532001971500896 0.00037229983951291153
000240 41 6b 5d 05 40 ed 35 3f 8a 1c 15 fe 54 45 36 3f
       0.00033457577716482575 0.0003398258687252262
000250 1b 2e 60 16 7d f4 35 3f 80 56 1e cf 18 20 49 3f
       0.00033500722781873584 0.0007667657030078906
000260 d0 33 fc 7e 55 fe 52 3f e7 1b e0 81 3f 82 50 3f
       0.0011592707559799804 0.0010076160610894504
000270 f7 59 0f 98 ef 2c 52 3f 4a af 81 a8 15 dc 44 3f
       0.0011093463692667374 0.0006365876915998905
000280 05 e9 76 79 08 65 43 3f 4e 8f ec 78 d9 8b 21 bf
       0.0005918780688525532 -0.0001338675469578728
000290 5a c9 6e da 8a c3 14 3f 30 da ef b2 71 05 13 3f
       7.92077540683658e-05 7.256037200407332e-05
0002a0 40 27 67 a2 cb 88 48 3f 44 5d 02 14 3b 06 31 3f
       0.0007487291630294615 0.0002597707971374217
0002b0 aa 7d ba 47 8f c4 53 3f 22 0b 9b e5 32 78 34 3f
       0.0012065314503287663 0.0003123401889803414
0002c0 3e 06 31 d9 de f3 54 3f 03 4b 14 bc 14 01 11 bf
       0.0012788463834713239 -6.486596159431192e-05
0002d0 52 75 dc 9c c8 39 6e bf 7a df bb 24 74 6d 71 bf
       -0.0036896627633626134 -0.004254773793711192
0002e0 2c b8 c9 d0 f5 00 70 bf ef 19 98 43 53 27 70 bf
       -0.003907165734387912 -0.0039437534810588945
0002f0 bc 2b 0e 92 af 0c 6d bf 18 46 f6 bd ee 6f 6a bf
       -0.003546088133992124 -0.0032272017412615754
000300 f8 39 81 55 d8 97 67 bf 0d 0d d5 e5 b3 ca 62 bf
       -0.0028800225518701393 -0.0022939218166883103
000310 48 26 91 51 76 d8 5c bf 97 b6 b1 5f 9f d2 5b bf
       -0.0017605929808887245 -0.0016981655487841357
000320 f5 1e 17 f5 68 cd 5d bf f1 32 42 be b2 b9 5f bf
       -0.0018189930891469562 -0.0019363637484587882
000330 87 04 fe b8 bd 17 64 bf 93 d1 ee ea 0a c9 64 bf
       -0.0024527268905676944 -0.0025372708546120364
000340 05 68 3e c0 08 15 6b bf ae 2b d7 46 72 39 6e 3f
       -0.003305928317741016 0.0036895019499971404
000350 e8 70 c3 d3 ee 40 6d 3f 58 a7 1b 69 58 44 6b 3f
       0.003571001490952342 0.0033284880417924594
000360 30 6b 9c 18 83 a6 6a 3f 20 03 1c c6 31 31 66 3f
       0.0032532272788449376 0.002709004606800028
000370 1d d8 6a f4 2f 72 60 3f b8 e5 3c 5d ff 49 45 3f
       0.0020075737587275226 0.0006496903319891867
000380 0f 11 0a d6 cb 25 06 3f 9a 2d a3 eb 47 56 39 bf
       4.2243273814997655e-05 -0.0003866124712998631
000390 aa bb b7 25 16 8c 2d bf ac 1b e8 66 2f 84 13 3f
       -0.000225427344829635 7.444896048279412e-05
0003a0 f2 0c 4e 0d cc e9 39 bf 40 a4 93 bb 71 f8 05 bf
       -0.00039540511834719385 -4.1905375334945916e-05
0003b0 8c 40 ed 59 58 6b 31 bf b2 ab ce 39 47 ce 4a 3f
       -0.0002657976819380257 0.0008180473119997393
0003c0 e7 4b 85 97 b9 73 6b 3f 73 e6 7a b8 11 33 68 3f
       0.003351080402504081 0.002954039202305131
0003d0 89 40 18 9f 36 7d 67 3f 97 f5 3c 4b 62 cf 63 3f
       0.0028673235726799956 0.002418224315902061
0003e0 d8 84 62 ce 9d dc 60 3f 51 81 f6 f8 1d 5f 58 3f
       0.0020583231117404614 0.0014875214290911052
0003f0 23 d2 74 98 89 80 50 3f 72 b2 29 a3 8d 5c 39 3f
       0.001007208223950625 0.0003869863313983652
000400 32 9c f9 ce 76 ad 1e 3f 17 da 90 e7 70 ce 22 3f
       0.00011702573441994891 0.0001434815237943566
000410 16 db d6 79 98 a1 36 3f 4d cb c0 8a cf a0 36 3f
       0.00034532520825385335 0.0003452784246775101
000420 a4 50 96 ad df 51 36 3f e0 0e c8 b6 d2 b7 34 3f
       0.000340573414711951 0.0003161324919178487
000430 88 15 e6 d7 cd fb 35 3f c3 89 4f 8e d7 a0 45 3f
       0.0003354432627918559 0.0006600430029915439
000440 0a a3 44 9b 34 62 51 3f f2 96 c0 3f 5e ee 4c 3f
       0.0010610116706379368 0.0008829078865388569
000450 8a 2e e0 d4 85 b2 4d 3f e0 f8 3f 03 cf d7 40 3f
       0.000906291339334912 0.0005140076450514085
000460 ca e7 2a b0 d1 ed 35 3f 15 c9 b3 91 74 ed 23 bf
       0.00033460969295228944 -0.00015203521693469475
000470 bf a0 61 51 02 4c 2f bf 6e 66 04 0c f7 82 2b 3f
       -0.00023877647680881593 0.00020989671430342603
000480 95 60 7a 1d 11 6a 46 3f 38 e7 e0 7c 55 cb 3c 3f
       0.0006840308733045026 0.00043936574082047456
000490 1c f8 e3 8f 63 1c 55 3f 63 ae 41 13 a7 21 41 3f
       0.001288506725870337 0.0005228105351426478
0004a0 ba 55 cf 59 24 1e 57 3f 3f 62 1a 6e 05 8f 22 3f
       0.0014109950054622526 0.00014159146580962516
0004b0 03 31 84 65 00 b9 6c bf 0c 1b c9 3c cf f2 6f bf
       -0.003506184362896404 -0.0038999602896042703
0004c0 dc 00 60 5a 61 0b 6f bf db 4c 13 50 7b 8f 6d bf
       -0.0037896062303844746 -0.0036084564641015566
0004d0 81 e9 5c 81 42 84 6b bf a1 aa 7f 66 4f 38 68 bf
       -0.0033589648182019154 -0.0029565382756023416
0004e0 80 73 56 f9 b8 cf 65 bf 8b 54 bf 75 43 58 62 bf
       -0.0026625263951260414 -0.002239352948871847
0004f0 85 f5 7b 9d 24 f4 58 bf 97 7f c4 b9 60 48 5d bf
       -0.0015230519838377043 -0.001787275751730965
000500 3e 5e 50 28 18 b5 58 bf be 7d 6d 36 0b 7f 5d bf
       -0.0015080200112204257 -0.001800309133351038
000510 ba a6 49 9c 61 66 61 bf c7 96 c6 3e f9 c7 62 bf
       -0.002124014516358877 -0.0022926204748781906
000520 85 9f 11 28 d2 e4 67 bf 2e 10 cf a1 e4 b8 6e 3f
       -0.002916727506590835 0.0037502732725176657
000530 9e e7 1e 18 3b c9 6f 3f 58 63 d8 c2 50 ee 6a 3f
       0.0038801340278639814 0.003287465797950178
000540 0a bd 5d 8b 5e 15 6e 3f 72 d8 ac 48 59 05 64 3f
       0.0036722990579886082 0.0024439567399908097
000550 4f 0c d1 cf 7d 1c 64 3f b0 0b d5 8d 66 31 20 3f
       0.0024549920331380713 0.000123542565157645
000560 7a 5f 4e 03 d4 62 3b 3f b0 9f 06 57 06 b3 2b bf
       0.0004178779229788637 -0.00021132900611786415
000570 a3 9c 5f 65 e7 86 38 bf 07 fb b2 42 d7 1e 35 3f
       -0.00037425183597723284 0.00032227282890666436
000580 25 6f bd a9 cf f6 40 bf ad 4b ff a3 fa 8a 1b 3f
       -0.0005177034358711847 0.00010506777562051149
000590 91 e9 f5 09 05 f5 32 bf f8 ca 07 6f 0c 8a 4c 3f
       -0.0002892625143072975 0.0008709488593566508
0005a0 7c d6 af 57 d1 50 67 3f e4 95 e9 c0 8e d7 64 3f
       0.0028461540909983634 0.002544192138247624
0005b0 97 f5 3c 4b 62 cf 63 3f 27 96 30 54 c4 83 61 3f
       0.002418224315902061 0.0021380266712352105
0005c0 65 74 d3 25 b9 f0 5c 3f ff 5a a8 61 46 8b 56 3f
       0.0017663772662708463 0.0013759791678517594
0005d0 df 04 50 7c 0c e8 4b 3f 47 69 30 b4 47 7a 3c 3f
       0.0008516369786094844 0.0004345345552693347
0005e0 6d 3f 2b 6e 1c e2 17 3f 37 40 c1 e8 f4 3f 28 3f
       9.110735440320617e-05 0.00018501152624361843
0005f0 49 61 c4 d9 84 fa 33 3f ba fb b7 84 c5 4b 35 3f
       0.00030484908508434224 0.00032495090701439475
000600 23 67 e5 3e 2a 8f 34 3f 99 96 2f 96 f7 0f 34 3f
       0.0003137090815435886 0.00030612749668388614
000610 8a 71 10 11 cd 3b 34 3f 2d 2d b6 69 08 e3 40 3f
       0.0003087402010935261 0.0005153456763066548
000620 ca 39 2c 06 88 6a 4c 3f 0c 83 07 ab a6 19 4a 3f
       0.0008671917133556359 0.0007965148743630259
000630 ea a0 a2 7c ce c0 4b 3f 46 5c 19 4a 77 3e 40 3f
       0.0008469589459041669 0.0004957277744307507
000640 51 35 8d 54 7c d6 3b 3f 4c ab d1 01 4a 29 14 bf
       0.00042477164656847416 -7.690920070195262e-05
000650 e5 d2 b1 f4 07 13 e1 3e 5a e2 7a b2 38 da 1e 3f
       8.141679833631322e-06 0.00011769267131967725
000660 aa db d7 f9 68 7f 45 3f 60 4e 40 38 20 ed 34 3f
       0.0006560576036339545 0.00031930958380252915
000670 05 0e 8c fe 3f 78 52 3f 7c 2b 17 f1 42 c9 3c 3f
       0.0011273026413513032 0.0004392422134428737
000680 85 c0 d3 81 89 db 54 3f c5 20 3a 94 92 ff 29 3f
       0.001273044857324408 0.00019835151953296305
000690 88 a8 69 3a b3 22 69 bf 5f 4c 9d ee a3 eb 6c bf
       -0.0030683041143691504 -0.0035303308294856585
0006a0 25 d1 0d 3e 5a ab 6a bf 16 bf 43 9a f4 ac 6b bf
       -0.003255535368618239 -0.0033783700365502918
0006b0 f3 6d 43 39 a3 b4 67 bf 20 b5 89 26 67 a6 67 bf
       -0.0028937519037819325 -0.002886964288612362
0006c0 37 46 de 2a 2b 93 62 bf 3d 9b e6 28 16 4b 62 bf
       -0.002267441092904911 -0.00223306968765105
0006d0 7f a9 2f 2e 79 df 57 bf 08 c4 4f c3 ae fc 59 bf
       -0.0014570887949455211 -0.0015861231488509837
0006e0 08 e3 0c c3 27 8c 58 bf 4d e5 51 44 e6 fc 59 bf
       -0.0014982593822436292 -0.0015861748409221222
0006f0 8b 4a 56 ca 94 04 60 bf 5a c8 0b a1 23 f0 5f bf
       -0.0019553094923108797 -0.0019493434849065156
000700 ac f6 a3 a5 2b 0e 64 bf d8 ce b6 a6 ab 23 6b 3f
       -0.0024481632691493917 0.003312907463362307
000710 98 7e db 5e 1c 16 6b 3f 03 11 e3 7f 2d a4 68 3f
       0.003306441699223072 0.0030079735434772616
000720 13 da a5 09 4a fa 68 3f 47 9f 72 e4 ba a2 63 3f
       0.003049034695489236 0.0023969316713027575
000730 64 09 60 62 35 1c 60 3f ff c4 4b a0 c9 1a 39 3f
       0.0019665758763959696 0.00038306639207437426
000740 f3 e4 06 d0 23 7d 17 3f be e0 b5 c8 47 21 32 bf
       8.960276682658582e-05 -0.00027664186992338777
000750 3a fb d4 53 d5 b8 30 bf 09 b3 bb de 3f 6c 17 3f
       -0.00025515754881049217 8.935108024461456e-05
000760 a5 83 f4 8f 14 55 3c bf c8 e6 84 38 32 59 20 bf
       -0.0004323172760952127 -0.00012472856566052835
000770 db dd 29 0e 02 d8 3b bf 50 b2 08 a6 0a 68 3e 3f
       -0.00042486238650193763 0.00046396503424509395
000780 2c ed 52 7b 8b 85 63 3f 75 7c 3e bb da 50 61 3f
       0.002383015084516457 0.0021137497041788197
000790 d8 84 62 ce 9d dc 60 3f 65 74 d3 25 b9 f0 5c 3f
       0.0020583231117404614 0.0017663772662708463
0007a0 4e 62 1a 17 a6 e3 59 3f 9a 24 38 eb 47 c8 52 3f
       0.0015801546073018926 0.0011463835079459695
0007b0 c3 9e 21 97 0c e8 4c 3f d1 de 45 be 25 34 34 3f
       0.0008821546055175145 0.0003082840105643583
0007c0 a8 fb e2 6e 75 60 2d 3f 15 1b e7 86 1e 84 1b 3f
       0.00022412713537353396 0.00010496555635262598
0007d0 4d 3b dc 87 43 46 33 3f 9e 10 36 0b 82 bc 33 3f
       0.00029410504053910687 0.0003011529435854673
0007e0 e1 b1 84 3f bf 48 33 3f 79 09 98 d7 14 8c 32 3f
       0.000294253055033859 0.0002830077060879326
0007f0 a7 4f 4f de b0 b7 32 3f 18 3c 33 be ee a0 36 3f
       0.00028560703350177314 0.0003452856892182678
