weights_new15/weights2.npz (npz, 29788 bytes, 2 tensors)

means f8 [60]
000000 16 c8 c8 4c d0 23 c2 bf 1f 89 d2 3d 6f 35 c1 bf
       -0.14171794652207897 -0.13444319266006574
000010 91 cc ce d5 c3 3a c0 bf 6a f3 86 a1 3d f9 be bf
       -0.12679336490473195 -0.1209906119683645
000020 27 d9 64 e7 2a 96 bd bf 16 53 35 86 3e 60 bd bf
       -0.1155726256300552 -0.11474982048578072
000030 dc 41 36 42 5b 5d bd bf e9 5c c8 02 62 ff bd bf
       -0.11470575682165624 -0.1171780831140158
000040 59 9b 28 be 1c db bf bf 7d 9b b7 3d e8 3e c0 bf
       -0.1244371380094952 -0.12691977513824418
000050 2e 0a ec 5d a3 41 c0 bf 74 0a 28 be fe 21 c0 bf
       -0.12700311742817533 -0.12603744778614934
000060 79 75 1f 9f 54 20 c1 bf ea 13 e6 cc a8 d7 c0 bf
       -0.1337991501776903 -0.1315814018709312
000070 ac e6 76 e2 bb 04 c2 bf 4f be 7a 13 2a 49 ee 3f
       -0.1407694679053767 0.9464311962564781
000080 62 d3 67 d0 f1 21 f0 3f 95 74 85 ea 65 95 f0 3f
       1.008287252506499 1.0364741478909185
000090 b7 fb 75 3f 3e ac f1 3f 89 ac 96 9d 7b 7f f2 3f
       1.1045515517177884 1.1561237483790896
0000a0 e4 f0 ca 93 49 df f3 3f 80 ef 71 24 e6 80 f4 3f
       1.2420135281709515 1.2814694808612046
0000b0 df 89 20 f1 cc 44 f6 3f 62 3b 66 04 01 dc f5 3f
       1.3917970103290072 1.3662119075631485
0000c0 a3 5f 32 49 92 51 f6 3f ab ad 60 c0 9b bf f4 3f
       1.3949148997544192 1.296779395556636
0000d0 7e 5c 76 c4 95 5a f5 3f 17 f4 27 41 49 b2 f2 3f
       1.3346154856024266 1.1685268922003667
0000e0 14 26 22 30 7a 9d f3 3f f2 10 7f 08 99 40 f0 3f
       1.2259466057024655 1.015770943821789
0000f0 4f 8d c2 1d 00 1f d9 bf 7c c6 1c 8f b1 a7 d5 bf
       -0.39251711755988067 -0.3383602044660632
000100 97 6b b7 29 18 66 d6 bf b9 7e f9 bc d7 03 d5 bf
       -0.34998134683490306 -0.3283595414595584
000110 27 e5 67 c4 01 f1 d3 bf 5d 34 6f 4b 41 ff d1 bf
       -0.311584893992022 -0.2812045323051445
000120 74 f1 a4 34 e4 bb d0 bf 09 73 c5 a5 f9 9d cf bf
       -0.2614679826836188 -0.24700852007199384
000130 2c c3 f0 07 1d d3 d0 bf e0 b4 bb 47 62 66 cf bf
       -0.26288533950269044 -0.2453120088825136
000140 80 84 46 68 ed 4d d0 bf e0 89 55 be 7b e7 d0 bf
       -0.2547563093485863 -0.2641286238414562
000150 dc 6c d0 04 bb 80 d4 bf 99 45 7e f3 3c 08 d4 bf
       -0.32035708875782887 -0.3130028131355061
000160 94 d9 7a b8 2e 3a d8 bf 2c d6 bd 26 7c fb f7 3f
       -0.3785511781274178 1.498897696813752
000170 ed 55 58 20 8a 33 f6 3f 40 b6 3b 22 28 c0 f5 3f
       1.3875828994254065 1.359413274501449
000180 37 bf e0 8d 7d 6a f3 3f 42 6e 05 32 5b cb f2 3f
       1.2134986440759812 1.174647517581335
000190 64 28 a0 36 64 41 ef 3f 8c 9d 25 de 80 46 f0 3f
       0.9767323557764596 1.0172127416243226
0001a0 44 3f 98 9d 25 3a ec 3f 01 18 98 84 1b 32 ef 3f
       0.8820980146428856 0.974866637204059
0001b0 1d 2f 23 d0 b0 ae ea 3f 49 bc cf 46 90 33 f0 3f
       0.8338245454010323 1.0125887647698326
0001c0 e9 3a 17 dc 52 ee ea 3f 5c b2 8e 17 f6 bf f1 3f
       0.8415922449729268 1.1093655510150233
0001d0 73 e1 bf 15 a3 01 ef 3f 2e c7 30 70 59 26 f5 3f
       0.9689498352809508 1.3218626387064876

covars f8 [60, 60]
000000 21 93 95 b1 37 92 52 3f 2b 48 5c ed 47 e5 51 3f
       0.0011334937938382655 0.0010922624982794376
000010 4a 4f 42 de 7e 72 51 3f 07 32 71 65 e3 82 51 3f
       0.0010648955294855927 0.001068803850802104
000020 cc ad 38 d0 64 c7 4f 3f 81 d6 be 3e e8 fe 4d 3f
       0.0009698145153768599 0.0009153970727228817
000030 78 25 44 6d dc fd 4d 3f cf 43 62 2d 05 d8 4d 3f
       0.0009152723601186094 0.0009107613830271424
000040 8c a8 93 5f aa f7 4a 3f 58 f2 92 fc 16 84 4a 3f
       0.0008229810620410546 0.0008092033614484724
000050 09 c5 cf 7f 4d 3d 4a 3f 0d 96 ce 2a 48 c2 4b 3f
       0.0008007648863196669 0.0008471348170259755
000060 d6 c6 10 89 e0 fc 49 3f 8c 1f 03 8d 9c b3 4a 3f
       0.0007930847515409077 0.0008148683937401076
000070 bb 0c 1d e6 63 7b 46 3f dd c4 36 05 ab be f1 3e
       0.0006860959804061631 1.692275720949632e-05
000080 c3 ef 05 16 d2 3f 2a bf e4 6c db cb 59 43 05 bf
       -0.00020026626135549565 -4.0556123605839535e-05
000090 aa e7 d7 32 86 ed ec be 9b 62 7f c8 72 e1 22 3f
       -1.3793863753431272e-05 0.00014404798662217142
0000a0 2f 10 bf 10 9e ae 36 3f b5 e2 6d 68 69 61 32 3f
       0.0003461013700383234 0.0002804643958636375
0000b0 6c 02 47 37 f1 6a 1f 3f e3 29 af 55 78 08 06 3f
       0.00011984917893582422 4.202477676747468e-05
0000c0 26 4e a6 d2 a9 e9 28 3f 18 36 2d 8c 2d 7f 28 3f
       0.00019006917984808295 0.00018689566612766005
0000d0 63 a4 d3 e8 28 c7 3e 3f f9 a4 ce 7d 3e e6 36 3f
       0.0004696345211657236 0.0003494169775942326
0000e0 7d aa f3 4a a0 7d 46 3f e9 08 ba 33 19 94 38 3f
       0.0006863625220863836 0.00037503829273800735
0000f0 47 bb f4 57 c9 ca 50 bf 77 e6 b8 eb 57 22 51 bf
       -0.001024910568798014 -0.001045785770556055
000100 4f f7 16 22 7f 1c 52 bf 32 57 78 0c 7a 80 58 bf
       -0.0011054269346994665 -0.0014954749948449917
000110 b3 a9 e2 c5 68 d7 58 bf fb ec e5 2b 09 4d 60 bf
       -0.0015162013219574943 -0.0019898585443890427
000120 2d 7c c1 2e 63 91 61 bf 9b 26 08 bb 53 89 60 bf
       -0.0021445214425024534 -0.002018607651056948
000130 40 90 0d 9a 14 b9 5a bf f7 49 dc 72 c1 a7 60 bf
       -0.0016310406865267663 -0.0020331171316538793
000140 90 75 87 f1 5e 39 59 bf 78 85 99 3e 72 57 5d bf
       -0.0015395571882586868 -0.001790868346141698
000150 14 cb 23 bd 5a ab 55 bf 1b 70 36 87 27 a4 5c bf
       -0.0013225923653947301 -0.0017481218354538145
000160 75 d7 a1 bb 88 c9 50 bf dd 3d 80 3f df 22 39 3f
       -0.0010246119768715066 0.0003835482634721702
000170 23 ef e8 f1 71 63 51 3f db b8 f7 c8 45 c8 45 3f
       0.0010613072150950718 0.0006647434947220325
000180 47 16 5c 1e 55 e7 46 3f 4d 95 60 f0 04 f0 32 bf
       0.0006989637010696514 -0.00028896446781552927
000190 ad bd b8 03 45 78 24 bf 50 78 14 6f 9e dd 00 bf
       -0.00015617220366113735 -3.216876747046181e-05
0001a0 f5 b1 86 99 df 62 26 3f 5d ec c2 ef b7 fb 25 3f
       0.00017079333771387287 0.00016771908111032604
0001b0 de c7 56 59 8b fe 19 3f 47 a6 e0 bd 47 a3 a0 be
       9.916043776206316e-05 -4.958454800130902e-07
0001c0 dd 0d f7 f2 fb 3e 40 bf ac f9 1c 3c 95 5a 3b bf
       -0.0004957895488861237 -0.00041738646915581257
0001d0 35 1b f8 a2 46 39 4c bf a9 71 7f ec 84 5e 37 3f
       -0.0008613200097336906 0.00035658593378487064
0001e0 2b 48 5c ed 47 e5 51 3f d2 3b 0b 57 87 a9 53 3f
       0.0010922624982794376 0.0012000867538295335
0001f0 7a 9c ca bb 2a 51 52 3f 25 45 3a b5 62 dd 52 3f
       0.0011179845161366762 0.0011514152473959896
000200 47 6b 18 9c 69 d5 50 3f be c3 af 30 fe 20 50 3f
       0.001027444014090677 0.0009844286275859505
000210 f6 d6 af 13 c6 82 4e 3f 8a ec f1 5b 69 80 50 3f
       0.0009311167881367033 0.0010071782014893526
000220 1d 19 5f 7b b0 36 4a 3f a9 e9 c2 a2 44 89 4e 3f
       0.0007999765136837176 0.0009318909774472156
000230 2d 0b d3 bf dc 6c 4b 3f 4c 96 c0 db b6 40 4e 3f
       0.0008369520070562235 0.000923241888362633
000240 0d 7b cb 80 75 51 4c 3f fc dc 52 d5 c7 b3 4d 3f
       0.000864202856600689 0.0009064412830842856
000250 fd e2 37 7c e5 ce 49 3f a7 ca e0 0d 4e 2c 0c bf
       0.0007876034291590391 -5.373585894154669e-05
000260 d2 a3 3a 2a 98 77 27 3f 72 af 92 88 98 d0 1f 3f
       0.0001790402649153576 0.00012136393538025677
000270 99 e0 b3 d9 5e 39 3f 3f d0 29 80 e1 ee 96 35 3f
       0.0004764420097696037 0.00032943088581363373
000280 e0 e9 c5 24 a9 38 4b 3f ff 34 33 b4 8e 01 34 3f
       0.0008307290932372778 0.0003052686117371444
000290 2b 6f 75 28 eb a1 45 3f 99 8c 8a 0f b4 7e 3d bf
       0.0006601713402391898 -0.0004500569917047031
0002a0 9b 4d df cb 46 eb 37 3f 6d 15 7a 14 5d 3a 1f bf
       0.00036497572352552917 -0.00011912530055198873
0002b0 83 aa e4 5d 0c 49 34 3f b8 4d 35 63 f5 88 1c 3f
       0.00030952979968171967 0.00010885236479412405
0002c0 0f 89 2d bd 65 a8 3a 3f 9a 0f 3a b4 a5 d6 28 3f
       0.0004067657838985475 0.00018950245622672835
0002d0 09 7d 36 08 7d e1 4d bf be 1c 26 ce fd f8 50 bf
       -0.000911890078373918 -0.0010359266821938075
0002e0 eb eb 34 84 6b 44 53 bf 66 e1 63 b2 8b 4e 57 bf
       -0.0011759805646096532 -0.0014225353457374078
0002f0 63 79 a0 11 80 78 58 bf 6a db 85 58 76 02 5f bf
       -0.001493573252907853 -0.0018926768990163664
000300 04 3d 37 a9 2e 0d 62 bf ce 99 30 86 33 05 61 bf
       -0.00220355142094031 -0.0020776754695532645
000310 cd ef e6 37 71 f5 5e bf 40 b4 39 69 c8 a6 5d bf
       -0.001889572682201457 -0.0018097836627035818
000320 4d ef 48 b7 1a 24 5e bf 6d b7 bb f5 3b 04 5f bf
       -0.0018396626375211834 -0.0018930993600707283
000330 69 c4 f6 cb fb 4e 5a bf 4a 00 cd 20 50 50 60 bf
       -0.0016057452156526214 -0.0019914212229253147
000340 cc 4a 6c bf 2c 70 55 bf 33 a0 64 70 bb eb 1d 3f
       -0.0013084828366955346 0.00011413890397149531
000350 6c ab 55 9a ba 90 11 bf 7b b4 d3 a6 ef a6 ef 3e
       -6.700648244410489e-05 1.5092894694446746e-05
000360 90 c7 6c 39 85 2c 40 bf 08 c5 e6 f3 6c e8 47 bf
       -0.0004935884961467674 -0.0007296115871239526
000370 22 aa c6 0c f0 38 51 bf 14 a7 26 79 97 4e 13 3f
       -0.0010511726605765344 7.365035552333823e-05
000380 90 a2 2a 91 31 5d 23 3f 7b 64 e2 25 c8 c3 e2 3e
       0.00014773588244067605 8.947740920016989e-06
000390 e7 68 c0 9d f2 f0 44 3f 90 e2 4c 3f 8e 2d 2f bf
       0.000639074768972206 -0.00023786889473755403
0003a0 ab d8 2f 3b 7c 18 22 bf ba 88 4d 91 90 0d 43 bf
       -0.00013805881971479714 -0.0005814510246689088
0003b0 0f 76 ba 5a a1 f4 51 bf 0a 41 e6 2a 8b d0 34 bf
       -0.0010959220625531595 -0.00031760594983955336
0003c0 4a 4f 42 de 7e 72 51 3f 7a 9c ca bb 2a 51 52 3f
       0.0010648955294855927 0.0011179845161366762
0003d0 f4 ca 59 49 47 ab 53 3f 6d 93 05 da fa 1c 53 3f
       0.00120050393652765 0.0011665773127671156
0003e0 c0 2d 7e 81 84 a1 52 3f 12 5f 90 49 a7 17 51 3f
       0.0011371416094075742 0.0010432370820633902
0003f0 c0 45 a9 58 29 d2 50 3f ad 2e 24 e8 f7 17 51 3f
       0.0010266689083845287 0.001043312164770531
000400 d6 39 ca c7 b7 41 4c 3f c1 46 78 0c d5 9c 50 3f
       0.000862326370752171 0.0010139542154132127
000410 c6 d1 1d a9 66 59 4d 3f 67 e5 43 b3 d2 0f 50 3f
       0.0008956671974674139 0.0009803350085902608
000420 73 03 9d 0a 39 ec 4d 3f 61 72 f4 84 15 d5 4e 3f
       0.0009131697199579028 0.0009409289431548501
000430 13 6a be f4 75 0b 4b 3f d6 81 a5 e8 59 9f 09 bf
       0.0008253408391170634 -4.887097482498034e-05
000440 dd 80 64 93 8e 4f 08 3f 49 c8 39 7e e1 5f 19 3f
       4.636911255517945e-05 9.679616737815021e-05
000450 cb bc ad 2f 01 6a 37 3f 80 30 e1 67 0e dc 35 3f
       0.00035727051697782554 0.000333550946270085
000460 bd eb 15 1f 03 66 4a 3f 27 d5 9c 44 0d 18 25 3f
       0.0008056178323124701 0.000160934085494149
000470 dc cc 42 2a f7 dd 47 3f 39 00 c2 42 3c 86 47 bf
       0.0007283646450758868 -0.0007179064027838029
000480 c9 c0 22 e8 dc 1a 3a 3f 98 14 48 09 29 7a 31 bf
       0.0003983296702570025 -0.00026668073522302096
000490 0d 57 32 ef ba 6a 36 3f 79 27 d6 82 6c ec 05 3f
       0.0003420549757689885 4.181581639801832e-05
0004a0 f9 05 b9 a7 5b 7b 3c 3f 33 ad 5c b4 6d 0c 22 3f
       0.00043459880518889566 0.00013769950072038128
0004b0 24 69 70 67 35 12 50 bf f3 75 77 cf 04 71 4f bf
       -0.000980903770829552 -0.0009595178116190137
0004c0 3d 33 31 af 5a fe 54 bf 26 38 8b 3a 67 c3 59 bf
       -0.0012813459004689797 -0.0015724666683811866
0004d0 d5 b4 6d ce 87 0c 59 bf 05 ff b6 3f c2 42 61 bf
       -0.0015288664087294475 -0.0021070283816867507
0004e0 1d b8 bc 81 e2 86 61 bf 0a 1f ca a3 3d 51 62 bf
       -0.0021395133934651992 -0.0022360042478942787
0004f0 72 45 5e 96 65 38 5f bf b1 e6 be b3 d6 20 60 bf
       -0.00190553589479622 -0.001968783702946585
000500 a3 37 ae 58 4f fb 5d bf d9 69 32 cf f0 40 5f bf
       -0.001829936491705799 -0.0019075729040084392
000510 18 16 ed 58 f9 69 5a bf 07 13 61 1c 0b 50 60 bf
       -0.0016121802361380774 -0.001991292668238723
000520 09 76 3f 68 51 85 54 bf 79 77 7c 28 db f8 3a 3f
       -0.0012524886124006837 0.00041156149426223966
000530 fd ed 31 76 12 56 34 3f 65 fd 0a ac 09 7f 30 3f
       0.0003103060791500299 0.0002517126668343999
000540 a7 e5 aa 9b 39 fa 32 bf 1d 52 24 65 da 24 49 bf
       -0.0002895727772443631 -0.0007673326856854655
000550 c3 df 10 c8 4c e2 50 bf 2f 00 f9 3a 3f c1 3c 3f
       -0.0010305166072281803 0.00043876451215752154
000560 60 4c 3e 03 99 91 27 3f ab cd 2b f1 99 c6 37 3f
       0.00017981522398411148 0.0003627897105353504
000570 93 1b 22 0f 28 cd 45 3f 73 60 ef 40 b0 31 0e 3f
       0.0006653256989615934 5.75906670900469e-05
000580 5d 0f ae 7d 43 6e ba be ad 0a a4 21 cd 6c 2f bf
       -1.5753935176118785e-06 -0.0002397537617256548
000590 d7 af 4c 87 ce d3 43 bf 38 80 2e 10 c6 1d 31 3f
       -0.0006050833168038627 0.00026117406394554924
0005a0 07 32 71 65 e3 82 51 3f 25 45 3a b5 62 dd 52 3f
       0.001068803850802104 0.0011514152473959896
0005b0 6d 93 05 da fa 1c 53 3f 1e 80 02 d3 5a 0d 55 3f
       0.0011665773127671156 0.0012849223094590976
0005c0 34 fc d3 2c 58 82 53 3f 0f e6 29 6f 3e 8c 53 3f
       0.0011907445035033272 0.0011931047162349084
0005d0 20 91 0f 0e 7a df 52 3f 9d a6 4d a4 d4 5d 53 3f
       0.0011519138281466737 0.0011820389347242729
0005e0 ee d3 90 ec 47 e7 50 3f dd 0c cd 11 18 19 52 3f
       0.0010317041762963847 0.0011046156934789088
0005f0 1c 76 00 70 a0 6e 51 3f d0 33 76 96 e3 43 52 3f
       0.0010639731190232931 0.0011148188149008205
000600 1f b2 2e b3 3e 73 51 3f 13 e2 28 29 85 fe 51 3f
       0.0010650741867080993 0.0010982799909823357
000610 41 e9 f4 74 0a 37 4f 3f 4a 7b 3a ab a8 e1 00 3f
       0.0009526063021561352 3.219886766924489e-05
000620 e3 cf e4 fa 92 30 dc 3e b3 58 ee 96 e8 a0 0d 3f
       6.720958408746428e-06 5.6511972494609034e-05
000630 d9 dd 6e af a7 3c 2d 3f ea 41 43 8e 5c 98 29 3f
       0.00022306010188598185 0.00019527559118738487
000640 76 b2 6d 31 bf ec 43 3f d0 8b e7 c7 9a 4e 1b 3f
       0.0006080564079247858 0.00010416812617779149
000650 b6 a9 a5 94 60 40 38 3f 5e f8 60 b6 fd ef 43 bf
       0.0003700481217011846 -0.0006084431486284116
000660 44 5a 9a b6 be 47 23 3f 01 de bf d3 cf f2 2c bf
       0.00014709666293262664 -0.0002208594031569561
000670 5d 08 11 b9 60 9b 37 3f 30 de 8f 42 da 5f 1b 3f
       0.00036021338843650834 0.00010442514088981262
000680 72 b1 d4 5e 3e ca 43 3f 72 c8 6e 4d 02 32 2a 3f
       0.0006039433043603505 0.00019985464197486456
000690 a2 46 d0 40 98 b0 51 bf 12 e6 75 61 6d 00 54 bf
       -0.001079701122993639 -0.0012208049937200188
0006a0 9f 3e f8 4f ab ec 55 bf 6d 0b db dc 1b db 5d bf
       -0.001338164613006322 -0.0018222591492509058
0006b0 10 27 f0 51 81 da 5d bf 80 d7 ea 76 b7 00 63 bf
       -0.001822115220195323 -0.002319677666799913
0006c0 47 b5 33 66 47 8d 64 bf 27 6a 9b 6d 92 3e 64 bf
       -0.0025087732807295457 -0.0024712428974969117
0006d0 7d 0a 14 21 2d d5 61 bf 32 c9 c4 46 e8 16 63 bf
       -0.002176845686905181 -0.0023302590035651155
0006e0 5d c0 f2 a6 05 b7 60 bf 84 66 0b b8 c2 8c 61 bf
       -0.0020403967278852923 -0.0021423152069076096
0006f0 de 14 51 7e 73 f8 5b bf cf df 50 aa de ba 61 bf
       -0.0017071845880008356 -0.0021643017703602894
000700 e7 06 68 cc b8 03 56 bf d8 8d 10 00 2d 6f 38 3f
       -0.0013436608002170226 0.0003728375305078447
000710 8a f9 ec a6 b7 af 3f 3f c6 3c 2e e4 5c 7c 32 3f
       0.000483496033599006 0.00028207080702542483
000720 be 96 d9 eb 82 85 13 bf af 4c b6 5f 69 4f 40 bf
       -7.446872310764693e-05 -0.0004977478524089885
000730 3b e0 96 57 b6 22 4c bf 05 ab f8 74 a2 a4 40 3f
       -0.0008586302130231324 0.0005079072233845355
000740 b0 b3 19 03 2c 43 41 3f 3e 9a d9 64 03 1f 48 3f
       0.0005268063452611351 0.0007361189434050353
000750 55 46 41 9c cc c8 4a 3f c6 da 85 07 f0 7a 3b 3f
       0.0008173941682889189 0.0004193149575465845
000760 6a 22 e9 a7 1e a9 fe be 79 44 3e d1 6a 35 1f bf
       -2.9240249654701607e-05 -0.00011905159436610855
000770 67 01 dc 1f 52 0d 51 bf 2a 46 e5 cd 8b 83 2f 3f
       -0.0010407735821332477 0.00024043161006175154
000780 cc ad 38 d0 64 c7 4f 3f 47 6b 18 9c 69 d5 50 3f
       0.0009698145153768599 0.001027444014090677
000790 c0 2d 7e 81 84 a1 52 3f 34 fc d3 2c 58 82 53 3f
       0.0011371416094075742 0.0011907445035033272
0007a0 27 81 c9 e2 2e c1 54 3f 0a 95 d6 a2 24 09 53 3f
       0.0012667615766517955 0.0011618478559765632
0007b0 b0 14 53 60 5f c3 53 3f b5 5d e1 a4 16 cd 52 3f
       0.001206248417746008 0.0011475297101436303
0007c0 07 95 c6 d0 1b 65 51 3f 62 dc fd 45 09 43 52 3f
       0.0010617038379703862 0.0011146154938310939
0007d0 c4 13 a0 e3 70 a0 51 3f 14 f1 67 f0 e9 09 52 3f
       0.0010758497651306301 0.0011009964524638137
0007e0 bc 5b cd 78 3f 56 51 3f 35 45 a4 24 33 8f 51 3f
       0.0010581607668507095 0.0010717391438144878
0007f0 ac b1 83 28 93 ed 4e 3f 3c 99 3f b3 16 86 1f 3f
       0.0009438484712780879 0.00012025369215926547
