data/weights_new15/weights1.npz (npz, 29788 bytes, 2 tensors)

means f8 [60]
0.08608678054851764 0.07396123469861769 0.06425190908786654 0.04693766403496685 0.02968170416631545 0.003534313422626081 -0.013613967162144618 -0.03393643075919146
-0.045088389434536975 -0.04254973264352895 -0.037593449206925485 -0.04051358551297828 -0.037700205136734694 -0.039128677901929663 -0.0386580262834221 0.9902026783072362
1.0616887463154443 1.0903885193710512 1.1763167788780389 1.215925822151969 1.2990210269723765 1.3136269796919704 1.3809892223505078 1.3202738441694362
1.3543144090792116 1.2257914541114372 1.2537963304522564 1.0584505196394767 1.1199393021183133 0.8809653239570175 -0.42230990902690313 -0.4657936451073994
-0.4651120560902475 -0.497721543729648 -0.5080796411130382 -0.5177093235941181 -0.5004453824486665 -0.48661385919212513 -0.47119498684079414 -0.47307209428615504
-0.471108612944341 -0.49866474335484745 -0.5166853843635585 -0.5333298347342048 -0.5490151888082697 1.260683883552935 1.2220738792068493 1.2224135050494478
1.1129680330565959 1.095861760123525 0.9707285268469705 1.0103412216017251 0.939951832452421 1.0301638631589531 0.9285113031093812 1.0994270756094204
0.999578151239604 1.2570039219113869 1.1571434206588167 1.4613912699331497
00000000: 5be5 1283 c809 b63f c7cc 339c 1fef b23f
00000010: 6cea 3c28 d072 b03f c82d f6a7 3608 a83f
00000020: e448 bc72 e164 9e3f b93a 0c12 fef3 6c3f
00000030: 5682 d7bd a3e1 8bbf 6ae4 81a8 1d60 a1bf
00000040: 91ee 194c d315 a7bf e7a3 501c 14c9 a5bf
00000050: 2971 c6d5 723f a3bf 77d5 a459 32be a4bf
00000060: b4c2 3af8 704d a3bf d358 d98f ac08 a4bf
00000070: 54fc 3a1d fcca a3bf d0b7 f786 bdaf ef3f
00000080: 144c bf56 adfc f03f d51e 6a3b 3b72 f13f
00000090: 9e46 f08a 31d2 f23f ec12 88a2 6e74 f33f
000000a0: 629a ba45 cac8 f43f 6cb9 4eb9 9d04 f53f
000000b0: 82fb a127 8818 f63f 058d 6777 d71f f53f
000000c0: cff2 f795 45ab f53f 9fff f17f d79c f33f
000000d0: 2d32 b2bd 8c0f f43f 7792 e4cf 69ef f03f
000000e0: c9a6 4179 45eb f13f 21c6 e930 de30 ec3f
000000f0: b406 0324 2007 dbbf 34f0 1a26 90cf ddbf
00000100: f081 785b 65c4 ddbf 9b57 3576 abda dfbf
00000110: 5c01 4b3c 3042 e0bf fc78 b524 1391 e0bf
00000120: b8a3 e108 a603 e0bf 77ac c074 ae24 dfbf
00000130: 994d a104 0f28 debf 30fe 662d d046 debf
00000140: 756e 5dbd a426 debf bc25 1887 1fea dfbf
00000150: 9f34 85c9 af88 e0bf 8a43 c5ba 0911 e1bf
00000160: 840a 1e4d 8891 e1bf 1c44 27dd c22b f43f
00000170: 0fd4 0757 9d8d f33f 8b04 a676 018f f33f
00000180: 5f8b 7791 b7ce f13f 3bae 4a57 a688 f13f
00000190: 8e43 8345 3510 ef3f 1548 898e 5b2a f03f
000001a0: 7459 86dd 1514 ee3f 9c9e 5c1a 8d7b f03f
000001b0: be46 1a56 5db6 ed3f 2445 61d8 4097 f13f
000001c0: 04d9 ab51 8bfc ef3f aed9 f824 b01c f43f
000001d0: d42d c8d1 a883 f23f 555d f0cf db61 f73f

covars f8 [60, 60]
0.0016788996105550889 0.0014960010018564035 0.001425798806986211 0.0010714750387863497 0.0006620262737205779 3.287512720596092e-05 -0.0003131174903976828 -0.0005109632470499663
-0.0006450432697465489 -0.0005037918369786132 -0.0004773527552879373 -0.00047659999267583646 -0.000434666652379028 -0.0004480562538542778 -0.00044345076479151627 0.000833635483830603
0.0004992000276194669 0.00037185784348095166 0.00025088891481645165 -4.0109747770462716e-05 0.00018700714423520575 0.00019390989576937846 0.0004604233825223229 0.0007154237443481394
0.0009841405539944897 0.0013880994655492442 0.0012960663485752388 0.0010420637367652926 0.0006454139279866657 0.00039081204509563213 -0.002702602540916071 -0.002790108809217116
-0.0022063789182393202 -0.002144150391779759 -0.0014864359911241924 -0.0004171077899329958 0.00047300902491718435 0.0009241059285955079 0.0010231017621593807 0.0009863705689311384
0.000910486842574084 0.0006091942509520947 0.00040414880138470524 0.00023346111695550699 -0.0003786106160806852 1.1544295151206896e-05 0.0007044948008812434 0.0012028927217643966
0.0007251804224522387 0.0003277972449060721 -0.0005090101534594598 -0.0013056847857023674 -0.0007037614923601708 -0.000901709419236028 -0.0014477208228106 -0.0009765564806915116
-0.0011817781788246637 -0.0004728460979484074 -0.0005955795133336806 0.00018401299920602283 0.0014960010018564035 0.0015874324479139134 0.0013877071323959897 0.0013493687508905534
0.0007457354094793911 0.0004840530766458694 -0.00011973329844215093 -0.00016966547510313044 -0.0005256611193147456 -0.0004512397821547295 -0.0002864359461592641 -0.0004089533582880988
-0.00028916533450902326 -0.0003412136172819411 -0.00032089503247506373 0.000476875439816811 -0.00035932310636641545 -0.00025556406530229185 -0.000888837528723755 -0.0001244779539109705
-0.0007258745026343399 0.00018662954224276567 0.0001776821996879941 0.0011380383688751332 0.0011505167247198831 0.0019391930184902582 0.0018564039876981095 0.001551161146345305
0.0012849119303707404 0.0007403472616875113 -0.002179981100748156 -0.0023168424107030874 -0.0019315623035792114 -0.0020578688961050435 -0.0012975405505616982 -0.0009360103874140585
0.0003804161685460894 0.0003676635935157941 0.0009498271156845278 0.0006577404499995197 0.0008462761705405346 0.0004932956359229516 0.00021794773864055553 0.00010080110657171414
-0.0005369408236494892 0.0005441500205874725 0.0013420763842532588 0.0015935592697340483 0.0017831157339983136 0.0005995905613473531 0.0002836959278187246 -0.0007562704482539501
-0.0008801369273849245 -8.36035131705102e-05 -0.0021740841056369486 -0.0007806844709547412 -0.00238323285829646 -0.0010959456451258881 -0.0017965233282077656 -0.0005408680108121227
0.001425798806986211 0.0013877071323959897 0.0013871367103171922 0.0011884142900579111 0.0008819875722987779 0.000405971370835589 -5.456895888922137e-06 -0.00020512253234599296
-0.0005261174501359888 -0.0003993418588921194 -0.0003246173928232259 -0.0003610343147803806 -0.0002936671270192833 -0.00032368416188772764 -0.0003105115029233289 0.00033174683397228316
-0.000575433717897876 -0.0006282394269924472 -0.0009841365883603093 -0.0006922328417366593 -0.0005620377437983232 5.2395966902983686e-05 0.00039262142625693064 0.0011772753672793944
0.0014703441444680787 0.0020144019354268812 0.002230789072002853 0.001670980830040544 0.0016120630383062173 0.0007816624272797011 -0.001957368471381671 -0.001798107099556328
-0.001578591407987149 -0.0017044175397304556 -0.0014847785599265565 -0.0007487159356457426 0.00016956684852085661 0.00039619207302156966 0.0009765120192703358 0.0007390428955300523
0.001017874813365212 0.0005322584432440071 0.0003162363887624826 0.0001966623592100344 -0.000408603300075644 0.0005481788375347998 0.001508079211103185 0.0018588343593955467
0.0016004386393352167 0.0007917943950531741 3.52576941615449e-05 -0.0007878373892260065 -0.0005164432043876498 -0.0004345303873685212 -0.001895096188586494 -0.001189028827825701
-0.002436318457434317 -0.0013455722250043272 -0.0020441104364206887 -0.0007663805648753158 0.0010714750387863497 0.0013493687508905534 0.0011884142900579111 0.001583720921400805
0.0008944285628704879 0.0010510006127623223 2.415750183477373e-05 0.00035136117115540876 -0.0005178672242425715 -0.00030888851392991566 -0.00016288771966197207 -0.00030282761533492763
-0.00015794910513200383 -0.0002236775601807568 -0.00019636238401961526 -0.0002081723237693728 -0.0021118699013123487 -0.0015677900518921294 -0.00282666645257681 -0.0009202955238172597
-0.0017058012903576573 0.00011375062987477682 0.0004437541894271061 0.0018563731397685601 0.0020407652270743744 0.0029458082869905015 0.003296826042206454 0.0025108732390933075
0.002812575511077362 0.0012867988795042592 -0.001138665671110575 -0.00047482026194189757 -0.0010412462434903067 -0.0010207426435736614 -0.001237881412362253 -0.001249819959576229
0.00011795874253595563 -2.1657438432528793e-05 0.0010499245791972145 0.0005188905397042319 0.0010794775293370737 0.0007852546578243921 0.00024948605070570384 0.0003042006915504501
-0.0004714685459598609 0.000822139040763143 0.002501754346036875 0.0020469350665060387 0.0032814499118365595 0.000981859094221597 0.0013623266770035549 -0.000607852947779827
-0.0009560136099030193 0.0003955728897354283 -0.0031901588326792036 -0.0010043797771441788 -0.004198825087923701 -0.002196877259732816 -0.003729803458050146 -0.0017355007782254978
0.0006620262737205779 0.0007457354094793911 0.0008819875722987779 0.0008944285628704879 0.0011140582289070825 0.0007143202076010458 0.0005724509436663837 5.783097378945653e-05
-3.418383874497268e-05 -0.00016405706116297424 4.209548772333261e-05 -0.00010028276823751095 2.2070295999181824e-05 -3.571791921077171e-05 -1.0963425297024426e-05 -0.00043602909113506417
00000000: 7a21 ebba d081 5b3f 8d29 2dd8 ae82 583f
00000010: 97a1 c9cf 3b5c 573f f81b 0190 178e 513f
00000020: c8ab ec98 7ab1 453f fa42 05c5 6c3c 013f
00000030: 0763 8d61 3d85 34bf fab1 bf37 45be 40bf
00000040: 3ba3 c0df 0323 45bf 7149 5ebb 1c82 40bf
00000050: 8b70 fd78 a648 3fbf daba be61 053c 3fbf
00000060: 2549 7f0e 7f7c 3cbf 55b2 02f5 225d 3dbf
00000070: bf03 3c88 de0f 3dbf 9d32 e691 0a51 4b3f
00000080: fb12 7ae5 975b 403f c379 c946 bd5e 383f
00000090: 28ec 1eaf 3771 303f 807d 7c70 7007 05bf
000000a0: 62a9 2023 eb82 283f 964d 4752 896a 293f
000000b0: 2683 c85e 9f2c 3e3f 4952 d9ca 6871 473f
000000c0: 1ce7 9edf c81f 503f 0b63 b873 1cbe 563f
000000d0: 8a2b 28a5 183c 553f ea41 dd6a bb12 513f
000000e0: ce63 46db 1f26 453f 7289 dbf3 bc9c 393f
000000f0: 59d0 dfb0 c423 66bf afd2 cf42 48db 66bf
00000100: 7149 7ca9 1c13 62bf 40cb eef9 9b90 61bf
00000110: 07e4 0b7e 905a 58bf 2339 1151 e855 3bbf
00000120: 9c7e f04a c6ff 3e3f c4cc e45e f647 4e3f
00000130: 571c f926 33c3 503f ff7d 7555 2329 503f
00000140: 1373 2c9b b7d5 4d3f d180 3fb1 4af6 433f
00000150: 4266 79e2 7d7c 3a3f 46ca 73b9 a799 2e3f
00000160: ceb7 c736 08d0 38bf f775 1ad8 cb35 e83e
00000170: c269 a310 bb15 473f 4603 a339 4cb5 533f
00000180: 4062 5c19 41c3 473f fcc0 5372 867b 353f
00000190: 943e 31fb e2ad 40bf 08c2 055d 7064 55bf
000001a0: c1f7 034c 940f 47bf bd9e a93b 168c 4dbf
000001b0: 4e09 9d65 2eb8 57bf 47a4 d912 f3ff 4fbf
000001c0: 5b75 44a8 bc5c 53bf a6c0 d786 0afd 3ebf
000001d0: 8678 1644 1584 43bf 4cf2 93a0 731e 283f
000001e0: 8d29 2dd8 ae82 583f bd93 b29c 2c02 5a3f
000001f0: d617 0130 77bc 563f 5ac0 f0a9 a91b 563f
00000200: f6c2 fb98 ae6f 483f 139e 3b22 10b9 3f3f
00000210: 53fa 7967 2a63 1fbf 1683 6a55 073d 26bf
00000220: 5e68 7aa8 9039 41bf 89ec 641b 8c92 3dbf
00000230: 0946 6a05 99c5 32bf 1de3 a74c 19cd 3abf
00000240: d574 a4a7 63f3 32bf 06cb c153 9d5c 36bf
00000250: d87b 80ab b907 35bf 1a52 146b a440 3f3f
00000260: 5d16 94fd 708c 37bf 0d0b 714d a7bf 30bf
00000270: b989 040f 1c20 4dbf 3c29 747b c950 20bf
00000280: 0fee f99f 13c9 47bf 109b 908f 3f76 283f
00000290: 0d27 3679 064a 273f 82bd db64 47a5 523f
000002a0: f5ef 31ed 9dd9 523f c740 15a6 90c5 5f3f
000002b0: 3cb9 949a 526a 5e3f 3a81 3d99 0a6a 593f
000002c0: 4916 07ae 4f0d 553f 25a5 68a3 7b42 483f
000002d0: 3d58 1371 c0db 61bf 2c5d 494c c5fa 62bf
000002e0: efc8 233b 8fa5 5fbf 0498 76f3 a9db 60bf
000002f0: 179f b68e 4742 55bf f126 5700 d3ab 4ebf
00000300: 15de b500 53ee 383f d836 2e1c 5f18 383f
00000310: dc39 0933 ba1f 4f3f b7a2 6adc 868d 453f
00000320: 0ed7 e83c 14bb 4b3f c670 d04f 102a 403f
00000330: 24fb c3d1 1c91 2c3f f3b9 12d3 a56c 1a3f
00000340: c6de 83a3 2f98 41bf 1cfb 7145 a9d4 413f
00000350: e066 768b 13fd 553f 3ddc a73c df1b 5a3f
00000360: 18e5 ccf0 ed36 5d3f 7396 0ded baa5 433f
00000370: f7ae 63bb a097 323f 769e cc6b 0ec8 48bf
00000380: 13ee d8a8 1fd7 4cbf be64 6a6b 89ea 15bf
00000390: 5c25 3d84 62cf 61bf a42d b822 db94 49bf
000003a0: 1ea2 ec65 0086 63bf 127d 0ead baf4 51bf
000003b0: 96db 3b3c 2a6f 5dbf c770 7d35 21b9 41bf
000003c0: 97a1 c9cf 3b5c 573f d617 0130 77bc 563f
000003d0: c5c1 93b3 12ba 563f 532a a220 9278 533f
000003e0: 7af1 a5e3 a5e6 4c3f f823 c7c2 119b 3a3f
000003f0: 1dcc cf1e 4ce3 d6be 9bd6 dd22 c5e2 2abf
00000400: 700c 009f 643d 41bf d83f 4f39 d82b 3abf
00000410: 98ca fc15 2d46 35bf 278e 2093 26a9 37bf
00000420: 2270 dab4 ea3e 33bf d3f4 b8e3 8436 35bf
00000430: 1bbc 05c0 8459 34bf a92e 6ecd c9bd 353f
00000440: 59ea eb7f 16db 42bf 1db5 80e5 0d96 44bf
00000450: a434 8e9d c41f 50bf b516 4fb5 deae 46bf
00000460: 4312 47dd b66a 42bf 41ff ddb6 7778 0b3f
00000470: 2bc6 7b2f 18bb 393f c7bf dacc d949 533f
00000480: 5233 eb00 1217 583f d185 e0cd 8180 603f
00000490: 720c 79c3 4d46 623f 58e7 1a01 9a60 5b3f
000004a0: 85d6 d481 7b69 5a3f 0913 e547 0f9d 493f
000004b0: 800a 4432 e608 60bf 7db8 fccb ce75 5dbf
000004c0: c3b4 259e 17dd 59bf 4537 e165 d8ec 5bbf
000004d0: c4f3 d3d6 9c53 58bf 2664 923a af88 48bf
000004e0: 6a9d 4423 b839 263f 5eb1 1eff fff6 393f
000004f0: 8fe5 ec97 93ff 4f3f a6bf 8788 8a37 483f
00000500: 8795 3ac2 46ad 503f 1614 aa4d e870 413f
00000510: 54fb 91f2 90b9 343f a203 65cd e4c6 293f
00000520: 68b0 94cf 39c7 3abf ee30 fc16 75f6 413f
00000530: fbc5 0db9 57b5 583f 09f5 1032 8474 5e3f
00000540: b46d 5fe7 b938 5a3f 2d9c 1584 0df2 493f
00000550: 32f0 9725 357c 023f 4c16 20e9 dbd0 49bf
00000560: f5b1 2756 3dec 40bf 78a0 88cd 357a 3cbf
00000570: 87b5 c609 9c0c 5fbf 6b22 7dfb 257b 53bf
00000580: 1a42 1d83 54f5 63bf 4fe6 d92c bd0b 56bf
00000590: b6b0 296f cfbe 60bf b3e3 30bb dd1c 49bf
000005a0: f81b 0190 178e 513f 5ac0 f0a9 a91b 563f
000005b0: 532a a220 9278 533f 19de 0e64 9bf2 593f
000005c0: 76a8 8bb6 024f 4d3f 3b0a a250 3738 513f
000005d0: ff49 a5e2 ba54 f93e 5cff 3bbd dc06 373f
000005e0: e871 5965 2ff8 40bf b69c c010 4a3e 34bf
000005f0: 649c 94db 9a59 25bf 04be 45b4 9ad8 33bf
00000600: ddff 607b e4b3 24bf 5626 959c 5f51 2dbf
00000610: 4a8a f908 d4bc 29bf 1f93 21a5 1a49 2bbf
00000620: 85fa 1a85 e94c 61bf 42e2 fdbf c9af 59bf
00000630: 357b 0eff f227 67bf 2bb1 b696 ff27 4ebf
00000640: 6d1b 5b30 a6f2 5bbf 104d dbf0 acd1 1d3f
00000650: 2f40 26bb f514 3d3f 24a9 2a7b 316a 5e3f
00000660: a355 177d cbb7 603f afd6 17c8 ce21 683f
00000670: ab24 0501 f201 6b3f 5726 48ce ae91 643f
00000680: c8ae cdfa 650a 673f 9df0 a7c6 3915 553f
00000690: a544 62f4 e8a7 52bf dcd7 1b7f 291e 3fbf
000006a0: 7f1f 06a4 4d0f 51bf 11de 6411 4eb9 50bf
000006b0: 06ce ac0b 0d48 54bf da8e 8bf6 1f7a 54bf
000006c0: 6981 10c4 13ec 1e3f 4089 26d6 9fb5 f6be
000006d0: cd5e c7ee b333 513f 6f50 f9f2 c400 413f
000006e0: 1375 db2b a8af 513f 0787 8589 31bb 493f
000006f0: 8305 b86d ae59 303f 4587 8905 a4ef 333f
00000700: d3db 69fc ede5 3ebf 06dd 7b25 9af0 4a3f
00000710: 61d0 2923 8f7e 643f 65a0 5de5 bbc4 603f
00000720: 27ec c001 b3e1 6a3f deca bb2c 3716 503f
00000730: 6278 8c21 0352 563f 4bea 0744 0aeb 43bf
00000740: e242 3398 9f53 4fbf 86a5 e59f 9cec 393f
00000750: 8475 5f7b 3f22 6abf f113 eb92 ac74 50bf
00000760: 12b7 f286 c932 71bf daee 7b7f 2fff 61bf
00000770: a63f eefb f68d 6ebf 3b16 6bc5 376f 5cbf
00000780: c8ab ec98 7ab1 453f f6c2 fb98 ae6f 483f
00000790: 7af1 a5e3 a5e6 4c3f 76a8 8bb6 024f 4d3f
000007a0: e3fb 2cea b240 523f 483a 1bf7 2668 473f
000007b0: 843e 720a 11c2 423f ad55 0421 f151 0e3f
000007c0: def9 74c1 13ec 01bf 3922 bc6c d780 25bf
000007d0: d863 d4f1 f511 063f b688 f8d6 dc49 1abf
000007e0: 2fdf 4531 7324 f73e 5d0a f05b fab9 02bf
000007f0: 57c4 04b3 f1fd e6be 2369 c0af 5a93 3cbf
