data/weights_new15/weights6.npz (npz, 29788 bytes, 2 tensors)

means f8 [60]
-0.12939138661464789 -0.14863910320200913 -0.16358013763112983 -0.18848465075423287 -0.2196710517954016 -0.24987324039079406 -0.2800615863999526 -0.3066350039738001
-0.31225539817475184 -0.30743389691933554 -0.2775533647650767 -0.2494125196644508 -0.1966077355136824 -0.18379127006726756 -0.12100497527226635 0.9835166072498424
0.9683249330683021 0.9810725188094185 0.9684866668455645 1.011998406332168 1.0187614499380424 1.0832392589236288 1.1350801270674058 1.1563737119624489
1.1101618476292423 1.0979342667738572 1.059062237116183 1.0262380583236017 1.0174695333335897 0.9839736815197195 -0.15617252177005037 -0.18910925943574228
-0.20782260093408286 -0.2345698512377155 -0.25703235322791185 -0.27136303160979725 -0.2814674868159724 -0.26557880660174144 -0.26887649483249615 -0.271643381856269
-0.24794629536640445 -0.22526102583214316 -0.20050173331732185 -0.188486000579901 -0.1497519426390902 1.2955271019208074 1.2976122812742814 1.3300926059003357
1.33621970115572 1.3657902733227365 1.3458765864514293 1.3709706892438067 1.341798396211258 1.3465719612625828 1.316696914374231 1.3312180555946045
1.2953238875496593 1.2930973579943024 1.270542399836564 1.2698490384125627
00000000: c06e f29e e58f c0bf 2867 942b 9b06 c3bf
00000010: 1650 b3a6 31f0 c4bf eac9 64d9 4320 c8bf
00000020: fd69 ab57 2e1e ccbf 74df cfa9 d8fb cfbf
00000030: 0209 9d6e 87ec d1bf 5315 786c e89f d3bf
00000040: b93d ca10 fefb d3bf 0cd3 3c39 ffac d3bf
00000050: 8be3 2330 6fc3 d1bf a9fc 95db bfec cfbf
00000060: 4900 1639 712a c9bf 0357 1deb 7886 c7bf
00000070: ad9a 729b 2efa bebf 19c0 e6d1 f778 ef3f
00000080: 7cc0 ed91 84fc ee3f 364e e931 f264 ef3f
00000090: 04d7 16c0 d7fd ee3f 00d0 ac3d 2531 f03f
000000a0: 0a8d 5ece d84c f03f cb1f 6db0 f254 f13f
000000b0: 2881 81c7 4929 f23f 5253 adb8 8180 f23f
000000c0: 3d5a cd11 39c3 f13f 2a39 8f85 2391 f13f
000000d0: 4e7b 8d3e ebf1 f03f 0a91 2699 786b f03f
000000e0: a381 2522 8e47 f03f b00f c85f b67c ef3f
000000f0: aca2 c410 76fd c3bf 7bda 5272 bb34 c8bf
00000100: 77d6 3055 ee99 cabf 02c7 d887 6206 cebf
00000110: e62d c8d3 3773 d0bf 2ce1 860c 035e d1bf
00000120: 2dc3 b034 9003 d2bf 3f5f 3740 3eff d0bf
00000130: ebfe fdc1 4535 d1bf 4ad7 4fec 9a62 d1bf
00000140: 10ac e146 b4bc cfbf 7d98 8171 5ad5 ccbf
00000150: aad1 b171 0aaa c9bf 2a4c 1f2c 4f20 c8bf
00000160: b4dc 1258 122b c3bf ef4d 5da0 7aba f43f
00000170: 3960 6f18 05c3 f43f cce4 2f2f 0f48 f53f
00000180: 60c1 cbe8 2761 f53f 5cdb d1e6 46da f53f
00000190: 142d 34e3 b588 f53f 483a 21f6 7eef f53f
000001a0: 77d7 5898 0178 f53f 7e55 750a 8f8b f53f
000001b0: f5b3 9fc8 3011 f53f 01fa c94d ab4c f53f
000001c0: cc0d 6c8a a5b9 f43f 9112 f2da 86b0 f43f
000001d0: 9dab 7744 2454 f43f 906c ad39 4d51 f43f

covars f8 [60, 60]
0.0033044087497850734 0.002960128487948909 0.002934828144714554 0.002582966224513626 0.0024680726676707208 0.001953607095225079 0.0019157300330774508 0.001225589989709968
0.0012065010350367988 0.0009280463900365399 0.0013522278217979705 0.0008896353047319218 0.0015276777059916712 0.00089731434172804 0.0016180129562527437 0.00042014234937271677
0.0008191988500266035 0.0009193514137584092 0.0009593604139701694 0.0009528131000916968 0.0006549468748601891 0.0007928958094066749 0.0001473561435590204 0.0010020623276481128
0.0004233150739109638 0.0012751180927342066 0.0008604881496991034 0.001912050040420096 0.0015031110275242961 0.0027801667611447923 -0.004419003376803897 -0.003968469793889835
-0.0040696310815728646 -0.003515078308204705 -0.0034033246487527907 -0.0024746874653465995 -0.0024447447734282255 -0.001949733257796144 -0.0018500138578623792 -0.0015402469785886284
-0.0023620521879350992 -0.0019935649765938468 -0.0031298441801525913 -0.002627561494832331 -0.004098459984834084 0.0017628404675461803 0.0013865660961042245 0.0009492335265888858
0.0004985769785128928 0.0003659988055250084 8.191078073910094e-06 -0.0006042764042701493 -0.0008245265747102673 -0.000903474824001117 -0.001007231181535549 -0.0008386242135853712
-0.0008549906554848974 -0.0009240428861716209 -0.0009987280202148853 -0.0018102020142949568 0.002960128487948909 0.0030631882196905063 0.0030243848619245966 0.002833589844148145
0.002635781572755189 0.00214857463110987 0.0020649022931840803 0.0013113929421684654 0.0011071054725853894 0.0009067714512237541 0.0012445770117158266 0.0007553677135610224
0.0014248232568752869 0.0006763515297056454 0.0015818053373328684 0.000732015600291675 0.0008526724889196651 0.0008061639496522367 0.0007079633812204569 0.0007043507877999197
0.0003070394458551205 0.000765227272388107 -0.0006390756120587406 0.001834661931532728 -0.00021433790492220213 0.0017357290856025056 0.0005728857699854847 0.0021367835971395836
0.0014933323865250333 0.0031284523326627046 -0.004000265032288062 -0.0034920087904013568 -0.003480923828041751 -0.0031472158644637142 -0.002735400505243544 -0.002319386109101842
-0.0020228809659981846 -0.002203611202553164 -0.0014343501818107696 -0.0014601735606262296 -0.002295500471506873 -0.001778225165288444 -0.003014885248328492 -0.0022822950180489032
-0.003979774566801371 0.0018957208637794692 0.0016589323364714663 0.0009725077868504363 0.0009623042645153897 0.0003182537726318224 0.0005402176008129856 -0.0007376663501080808
-0.0007023698327380103 -0.0007248254666501902 -0.0011157325979258327 -0.0006241076597145114 -0.0007780960359005539 -0.0009198277579086347 -0.000915905472089992 -0.0021887783892648926
0.002934828144714554 0.0030243848619245966 0.003237253661087902 0.002914623438067829 0.0028822909723359726 0.0023193625862109875 0.00237527462211602 0.0014871712651798358
0.0012568613676722893 0.0010092550607486057 0.0013152828163198566 0.000756197099352784 0.0015531187073862004 0.0007269348398397829 0.0017609512471526677 0.0010012360942786677
0.0011595311615474478 0.0008794121599604109 0.0008077130653482746 0.0006781714003434721 0.0001834323361317067 0.0007219901597035931 -0.0013113504893984798 0.002504994566551766
-0.0006558942144471097 0.002156846313086031 0.0005284388158732025 0.0021981898017274515 0.0015150328911528543 0.0028693871037604205 -0.00412026680107557 -0.003645276768781902
-0.00378429945937524 -0.003424839007600635 -0.0027844202952982296 -0.0027843229794082052 -0.002149177545175278 -0.002803697315415563 -0.0014062015234445832 -0.0019836750304289535
-0.0025875168861782343 -0.0021937396416974826 -0.003327091122270293 -0.0027681419886037913 -0.004140872056171698 0.0014170085335387182 0.001159430338278797 0.000649504658533064
0.00087676995805434 0.00026592014396570297 0.0006218631724535196 -0.0005092244189549364 -0.0006045064782670773 -0.000420517924378784 -0.001133544883482874 -0.0002408295864452657
-0.0007045973371455211 -0.00048370153169802855 -0.0007183164198357997 -0.0016470499240295912 0.002582966224513626 0.002833589844148145 0.002914623438067829 0.002991681398940257
0.0027627261354034615 0.002408874578789065 0.002279779655643286 0.0016555735670166316 0.0011214192950695348 0.0010614139626370905 0.0012252533727612348 0.0008060603854872236
0.001483747017943554 0.0007366474908055506 0.001666499646514703 0.000919424383411083 0.001073069397177933 0.000889679360942111 0.0006124270286736412 0.0005709917994531583
9.594895818605842e-05 0.0006889396643772271 -0.0013549992516772341 0.002481060002896091 -0.0006779990749705126 0.0020439711860957143 0.00044249466590141 0.0020998466236356044
0.0014237174929873345 0.0027489022191702506 -0.0037421545347770557 -0.003293572587017494 -0.003226022811216497 -0.0034553776688570933 -0.0025635074850331816 -0.0027246342849834224
-0.0020342130287305193 -0.002889152311084778 -0.001490932828084469 -0.001991861743999104 -0.002656322690847184 -0.002210816457449672 -0.0032572786780315334 -0.002598043478129327
-0.003939541604057797 0.0015917697512286746 0.001343331871300536 0.0005459630002758214 0.0010590027355285177 0.00033218725292777926 0.0008737671909399771 -0.0005709357187817467
-0.0003763883315678892 -0.00038362102733872786 -0.0010838440128780244 -0.00021309030452306766 -0.0007287239097453223 -0.0005141956515696414 -0.0007348916677979217 -0.0016250140830621103
0.0024680726676707208 0.002635781572755189 0.0028822909723359726 0.0027627261354034615 0.002936673890702028 0.002336871392776555 0.0024666572955808837 0.0017280646504336445
0.0011330868099229216 0.001029499594033624 0.0010820554095754312 0.000543501274910172 0.0013558018183189682 0.0005303883921971539 0.0016093965252832 0.0006587054534273842
00000000: ba07 6af0 d811 6b3f febe 86e1 d63f 683f
00000010: d269 d4dc c70a 683f 492c c06e df28 653f
00000020: 549a 896c ec37 643f 0cc8 a9d2 0201 603f
00000030: 4d18 c375 2763 5f3f 4a9b 243b 7f14 543f
00000040: 6197 3c9f 6ec4 533f c3f8 7a72 0469 4e3f
00000050: 6e05 5e91 a727 563f 9132 0445 cd26 4d3f
00000060: 38d9 4e72 8b07 593f d304 40e0 3767 4d3f
00000070: f7b1 d22e 7082 5a3f 83d8 74a6 d188 3b3f
00000080: 3451 8822 f0d7 4a3f 4847 b820 1420 4e3f
00000090: 7ab0 31cd b26f 4f3f 8bf5 528d c638 4f3f
000000a0: 8cfe 3db4 1776 453f 3b5c 07c9 4afb 493f
000000b0: 0be5 88a2 7350 233f 3658 403b f46a 503f
000000c0: b05b fa65 0cbe 3b3f 9aec 6fa0 3be4 543f
000000d0: e12c 143b 4c32 4c3f bf36 1519 b853 5f3f
000000e0: 9d7b 262d 81a0 583f 0d1f 21aa 6ec6 663f
000000f0: fea2 bf2f a919 72bf 54c1 adff 3d41 70bf
00000100: f12a 6f46 51ab 70bf a541 0d4c a7cb 6cbf
00000110: c9cf 0c02 4ae1 6bbf c452 68b7 cb45 64bf
00000120: a686 2a5b 0007 64bf 4f8a 0025 c6f1 5fbf
00000130: 0f0d 1141 854f 5ebf 1eb9 a699 433c 59bf
00000140: 5b8c c11c 9559 63bf d7bd 0f0c cf54 60bf
00000150: da8d a64c c2a3 69bf e677 0856 6586 65bf
00000160: abcb 94f9 8bc9 70bf 6fca fe89 e3e1 5c3f
00000170: 322e 5602 aeb7 563f 4eca fa79 bf1a 4f3f
00000180: 60b1 9be8 5d56 403f 9747 6de6 70fc 373f
00000190: 29d9 c232 8d2d e13e 9f5e 71b2 09cd 43bf
000001a0: daf1 2656 a104 4bbf 7130 3269 e59a 4dbf
000001b0: c63d fd3e a280 50bf a0f7 15c9 e37a 4bbf
000001c0: 5238 ac73 2e04 4cbf f566 f4fc 6e47 4ebf
000001d0: ec90 cd0b f85c 50bf 5bd0 d59c 89a8 5dbf
000001e0: febe 86e1 d63f 683f b7b7 33a7 f817 693f
000001f0: 2ac9 5142 98c6 683f d1a4 bff6 7736 673f
00000200: 94b4 f074 a297 653f 3998 c138 e399 613f
00000210: 9d78 32fa 69ea 603f ccd8 1f73 617c 553f
00000220: 960d 1273 8923 523f 068c 2ddd 8cb6 4d3f
00000230: 21d5 0264 2264 543f fe48 27d0 7bc0 483f
00000240: 6f71 9d52 2458 573f 7a0e b0d9 a529 463f
00000250: dfa3 518c 92ea 593f d2f7 1d88 97fc 473f
00000260: 6b3d 203a bcf0 4b3f b9aa 44e6 976a 4a3f
00000270: 4083 d8c8 d332 473f ab0e 9ccc 8514 473f
00000280: a152 e760 441f 343f 8fe6 f00d 3113 493f
00000290: 874a 3e6d f4f0 44bf 8386 b03f 210f 5e3f
000002a0: 1360 7895 fc17 2cbf 4e7e 12ea 2c70 5c3f
000002b0: e943 bed2 b6c5 423f 6f12 63f5 2881 613f
000002c0: bc99 c770 7d77 583f 3b94 960e d7a0 693f
000002d0: befb d2f7 9462 70bf 18f4 aaf1 459b 6cbf
000002e0: d2b3 0ac0 0684 6cbf 982a c3a6 30c8 69bf
000002f0: c877 c4f6 8c68 66bf b84e 88ef 1a00 63bf
00000300: 9618 f7f2 4992 60bf c3bf 89c1 4e0d 62bf
00000310: 2407 cdc7 1980 57bf 27b2 1e6c 69ec 57bf
00000320: 4d96 7f6e 03ce 62bf 8077 82bb 6a22 5dbf
00000330: 0152 5e31 acb2 68bf 2985 cbce 51b2 62bf
00000340: 3b01 c299 184d 70bf c58e 2fc7 3a0f 5f3f
00000350: 0c37 6908 112e 5b3f 3f54 df91 fcdd 4f3f
00000360: 6384 25ac 6488 4f3f e19e 978b 69db 343f
00000370: c3c2 cf76 acb3 413f 0d74 ae6c fe2b 48bf
00000380: 7219 0cbb e703 47bf 8a53 58d6 46c0 47bf
00000390: 951f 3ac1 b847 52bf c48a 6bfe 6473 44bf
000003a0: 8fe1 7f83 247f 49bf ee92 af11 1324 4ebf
000003b0: b1d8 4006 2c03 4ebf eee3 3373 33ee 61bf
000003c0: d269 d4dc c70a 683f 2ac9 5142 98c6 683f
000003d0: 80a6 4d53 0385 6a3f 2dcf 178b 68e0 673f
000003e0: 43f3 d62e 9a9c 673f bf29 924e 0e00 633f
000003f0: 9bb0 45da 4f75 633f 12d0 a3fc a55d 583f
00000400: 2d85 109e a897 543f d5d4 ab5e 1f89 503f
00000410: b1e3 962b b28c 553f c97e d0e7 70c7 483f
00000420: 8e9a 8583 4072 593f 9f08 85ae f8d1 473f
00000430: 7539 0c01 f7d9 5c3f 32bd f311 7d67 503f
00000440: 42f6 b81a 6dff 523f 51f6 bd3b 0bd1 4c3f
00000450: 2ae6 a099 9677 4a3f 82c1 26fe e938 463f
00000460: 864e f9c4 f70a 283f 22f2 dd0f 7ea8 473f
00000470: 72bc cbdd 337c 55bf 4d0f aeb7 5a85 643f
00000480: bd13 b019 0a7e 45bf 5b0b 120c 3cab 613f
00000490: 4a75 4fb7 dd50 413f c0da e129 f001 623f
000004a0: 2948 122e 82d2 583f 469a a578 8a81 673f
000004b0: f626 95b2 69e0 70bf 0099 3710 b3dc 6dbf
000004c0: 6739 524d 4000 6fbf 51c4 0371 680e 6cbf
000004d0: e877 6943 5acf 66bf cefb 6a04 26cf 66bf
000004e0: d768 a2e8 269b 61bf 610a e288 c7f7 66bf
000004f0: 6583 8163 090a 57bf fcef 356c 1140 60bf
00000500: 536e ed8c 6a32 65bf 5681 8b00 9bf8 61bf
00000510: 5b68 f371 6a41 6bbf 51c1 f9e9 36ad 66bf
00000520: c24b eee0 04f6 70bf 2327 d253 5d37 573f
00000530: c129 a2d8 00ff 523f 4407 2da2 7048 453f
00000540: 5ef9 e125 e1ba 4c3f faa3 5952 666d 313f
00000550: d8c8 7ffe 9060 443f 45eb e41c afaf 40bf
00000560: 48d5 f5c6 f7ce 43bf 7fee 8abb 1e8f 3bbf
00000570: d1b4 ff8c 6e92 52bf 0ed6 3765 e690 2fbf
00000580: 80b6 8b42 9716 47bf 799c 7942 2ab3 3fbf
00000590: ee14 04c4 ac89 47bf 15e1 bf63 3afc 5abf
000005a0: 492c c06e df28 653f d1a4 bff6 7736 673f
000005b0: 2dcf 178b 68e0 673f 2c8d 97b8 0282 683f
000005c0: 8593 c74c dba1 663f 6371 27b1 c6bb 633f
000005d0: e2b3 0462 0bad 623f 2eb2 e494 fa1f 5b3f
000005e0: f7a4 a2cc 925f 523f f868 7390 e463 513f
000005f0: c3a7 94ca 1513 543f 0733 447f b969 4a3f
00000600: b30a ba3a 494f 583f 4f3a db70 7223 483f
00000610: b8c2 c15e ce4d 5b3f 03ec 35d4 b020 4e3f
00000620: e3e4 e67d c794 513f e690 2ce1 2b27 4d3f
00000630: d871 9807 6911 443f d286 6e8d d3b5 423f
00000640: 7b54 cb8c 0627 193f 47d0 e8a9 3e93 463f
00000650: 9233 365e 4733 56bf 5b9d 4cf2 2853 643f
00000660: ef95 46ed 7737 46bf 6171 beac 84be 603f
00000670: 5b30 631e d4ff 3c3f 0179 6792 b233 613f
00000680: 774a 8d04 8153 573f 241a 33a4 dd84 663f
00000690: 8581 fdea dda7 6ebf 5533 8b51 1ffb 6abf
000006a0: ace6 0ccf 756d 6abf 4782 a8c2 734e 6cbf
000006b0: d4e9 f599 1000 65bf 70d8 b8e4 f851 66bf
000006c0: f3cd cecd 0daa 60bf 0784 0ed6 fdaa 67bf
000006d0: 9e8e 2def 6c6d 58bf d25f 8ea1 3c51 60bf
000006e0: 58c6 b662 b6c2 65bf ce05 3b0c 6b1c 62bf
000006f0: 5ae1 ac2c 02af 6abf 2b77 b5f8 7d48 65bf
00000700: 434d 9ca5 e822 70bf 58f4 8dc1 5d14 5a3f
00000710: 0540 1d9d 5702 563f 23c2 919d dee3 413f
00000720: 46da 6387 c759 513f 686c 3163 2dc5 353f
00000730: c42e 34c1 b0a1 4c3f d9af c11e 5bb5 42bf
00000740: fa3b 1e93 bfaa 38bf e8e2 37c4 1724 39bf
00000750: dbb4 b6a5 f8c1 51bf 4ccb 2dc7 1fee 2bbf
00000760: 0908 1aae fae0 47bf 8824 edc0 62d9 40bf
00000770: 3823 f3d6 b714 48bf 5019 e895 cd9f 5abf
00000780: 549a 896c ec37 643f 94b4 f074 a297 653f
00000790: 43f3 d62e 9a9c 673f 8593 c74c dba1 663f
000007a0: a304 3aca a60e 683f 8832 9f46 c624 633f
000007b0: 9159 478d f434 643f 5ad4 2c4a 0750 5c3f
000007c0: 2d8d b2b2 8290 523f a08f 9bc5 08de 503f
000007d0: 9178 2e26 78ba 513f b9c6 bc19 38cf 413f
000007e0: 2fe6 0c1e a536 563f e9a5 3a66 3861 413f
000007f0: 2a13 505c 4c5e 5a3f d953 a930 9f95 453f
